source/models/deep_fastai_default_usnw-nb15.pth (torch, 202451 bytes, 36 tensors)

bn_cont.weight f4 [49]
0	0x3f793874	0.97351766
1	0x3f8b7b52	1.0897009
2	0x3f76c4ec	0.9639423
3	0x3f787150	0.970479
4	0x3f7e1cc9	0.9926267
5	0x3f8223ee	1.0167215
6	0x3f79b781	0.9754563
7	0x3f804652	1.002146
8	0x3f73f0d0	0.95289326
9	0x3f8490cd	1.035669
10	0x3f961f0a	1.1728222
11	0x3f827745	1.0192648
12	0x3f763f0f	0.9618997
13	0x3f7417f0	0.95349026
14	0x3f70296c	0.93813205
15	0x3f8afc70	1.0858288
16	0x3f860e13	1.0473045
17	0x3f739eed	0.95164376
18	0x3f73afaa	0.9518992
19	0x3f7b2061	0.9809628
20	0x3f803710	1.0016804
21	0x3f6ea2d3	0.932172
22	0x3f787dfc	0.97067237
23	0x3f7df481	0.9920121
24	0x3f7c6e65	0.9860595
25	0x3f64038d	0.8906792
26	0x3f76b7ff	0.96374506
27	0x3f804bb3	1.0023102
28	0x3f6d9a30	0.92813396
29	0x3f6a95ee	0.91635025
30	0x3f701172	0.9377662
31	0x3f840053	1.0312599
32	0x3f771d57	0.96529144
33	0x3f82df33	1.0224365
34	0x3f8ebe0b	1.1151747
35	0x3f88700c	1.0659194
36	0x3f81f9db	1.0154375
37	0x3f7794ac	0.9671123
38	0x3f7ea155	0.99464923
39	0x3f830f79	1.0239097
40	0x3f852894	1.0403008
41	0x3f698d0d	0.9123085
42	0x3f80cde8	1.0062838
43	0x3f741fe0	0.9536114
44	0x3f824619	1.0177642
45	0x3f71acdc	0.9440439
46	0x3f7c953e	0.98665226
47	0x3f80b907	1.0056466
48	0x3f8212aa	1.0161946

bn_cont.bias f4 [49]
0	0x3d5ed59c	0.054402933
1	0x3c650156	0.013977369
2	0xbd01947f	-0.031635758
3	0x3d29bdc3	0.041440737
4	0xbd144b15	-0.036204416
5	0xbc7874c7	-0.015164561
6	0x3d7255ee	0.05916398
7	0xbceee109	-0.02916004
8	0x3d39ae56	0.045332275
9	0x3c00c550	0.007859543
10	0x3c476057	0.012168965
11	0x3cf63fee	0.03005978
12	0x3d0356be	0.032065146
13	0x3d642888	0.055702716
14	0x3d498049	0.049194608
15	0x3be03dfc	0.0068433266
16	0x3d3adb5c	0.045619354
17	0xbb6aaf67	-0.0035810114
18	0x3c81305c	0.01577013
19	0xbd5b395c	-0.0535215
20	0x3b21acb9	0.00246696
21	0x3cd86ff2	0.026420567
22	0xbd412c92	-0.047161646
23	0xbd1e872e	-0.038703136
24	0x3d76fd35	0.06030007
25	0x3dc5f14c	0.09665164
26	0x3d326bab	0.04355971
27	0x3c1041e3	0.008804771
28	0x3d3045c4	0.043035284
29	0x3aa14bf3	0.001230596
30	0x3d031d36	0.03201028
31	0x3c78f75f	0.015195697
32	0x3d531ef6	0.0515432
33	0xbc44378a	-0.011976132
34	0x3c3024bc	0.010750946
35	0x3d931b66	0.0718296
36	0x3d278231	0.040895645
37	0xbcfc203e	-0.030777093
38	0xbc6c2eee	-0.014415486
39	0x3cf03774	0.029323317
40	0x3d9e514a	0.077303484
41	0xbd4e18f9	-0.050316785
42	0x3da1c90a	0.07899673
43	0x3c86b65b	0.016444376
44	0x3d53d6b0	0.051718414
45	0x3bdc990b	0.0067321113
46	0xbc71462d	-0.014726204
47	0x3d89cda4	0.06728676
48	0x3d424b2c	0.04743497

bn_cont.running_mean f4 [49]
0	0x3a736ee5	0.0009286239
1	0x3c8dc601	0.01730633
2	0x3eb09415	0.34487978
3	0x39a090e9	0.00030625545
4	0x3a63cc27	0.0008689784
5	0x3ae320fb	0.0017328555
6	0x38c28365	9.275115e-05
7	0x3e95c459	0.29251364
8	0x3dee7603	0.11643603
9	0x3cbd2310	0.023088008
10	0x3ca07dbe	0.019591209
11	0x3ae320fb	0.0017328555
12	0x38c28365	9.275115e-05
13	0x39a369a4	0.0003116849
14	0x39681700	0.00022133812
15	0x38d345b8	0.0001007425
16	0x38e96b69	0.000111303125
17	0x382e0bb0	4.1495718e-05
18	0x37dbc1b7	2.619704e-05
19	0x3e0d659d	0.13808294
20	0x3d42f981	0.047601227
21	0x38da4a3f	0.000104088795
22	0x38868069	6.413536e-05
23	0x3e3c8c1c	0.18412822
24	0x3d7367f1	0.059425298
25	0x39c05764	0.00036686205
26	0x38c80895	9.538342e-05
27	0x3dc962d2	0.098333016
28	0x39e39222	0.0004340569
29	0x396777c7	0.00022074497
30	0x39e309bf	0.00043304075
31	0x3d59b782	0.053153522
32	0x373a4e21	1.1104655e-05
33	0x3dc9aa94	0.09846988
34	0x39186f3d	0.00014537289
35	0x3cf461ca	0.029831786
36	0x38ff2d28	0.000121677585
37	0x382ab081	4.069554e-05
38	0x3e384868	0.17996371
39	0x39591f81	0.00020706469
40	0x3cb1d341	0.021707179
41	0x399a7b7e	0.00029465178
42	0x3dbd20f2	0.092347994
43	0x399d0853	0.00029951576
44	0x3a736ee5	0.0009286239
45	0x39be1475	0.00036254866
46	0x3d0dcf35	0.034621436
47	0x3dff3d10	0.124628186
48	0x3bf1ab2f	0.007375143

bn_cont.running_var f4 [49]
0	0x379e8233	1.8895696e-05
1	0x384ea18e	4.9264687e-05
2	0x3e2f0b6e	0.17094204
3	0x36309301	2.6311611e-06
4	0x3797242d	1.8017448e-05
5	0x38a30438	7.7732315e-05
6	0x33f70423	1.1502586e-07
7	0x3e1fc921	0.15604068
8	0x3d4b3bb4	0.049617484
9	0x39e17b53	0.00043007228
10	0x39392603	0.00017657135
11	0x38a30438	7.7732315e-05
12	0x33f70423	1.1502586e-07
13	0x36783269	3.6984222e-06
14	0x36cca7ec	6.0992224e-06
15	0x33c87721	9.334895e-08
16	0x35164fa1	5.599523e-07
17	0x3322e946	3.7930725e-08
18	0x34fb97f5	4.6862957e-07
19	0x3d356e37	0.044294562
20	0x3c0a7748	0.00845129
21	0x3458b6dc	2.0183091e-07
22	0x35c4c0f0	1.465929e-06
23	0x3da0bf67	0.07849007
24	0x3cd8869a	0.02643137
25	0x36f37bfa	7.256397e-06
26	0x3599c05c	1.1455372e-06
27	0x3c80af73	0.01570866
28	0x36ebbcc7	7.0255223e-06
29	0x36cc973c	6.0972798e-06
30	0x36ebb635	7.0247575e-06
31	0x3c07f1cd	0.008297396
32	0x33dfaa9d	1.0415281e-07
33	0x3c80e559	0.015734361
34	0x34b9d389	3.4612847e-07
35	0x3b9f983b	0.004870442
36	0x354a353b	7.5328325e-07
37	0x353782ed	6.8363335e-07
38	0x3d759fda	0.0599669
39	0x35d16446	1.5600897e-06
40	0x3b10bdbc	0.0022085747
41	0x362afa0f	2.5477527e-06
42	0x3cae70f5	0.021294096
43	0x362e9ff0	2.6021116e-06
44	0x379e8233	1.8895696e-05
45	0x36ffe84d	7.6266356e-06
46	0x3c0a9910	0.0084593445
47	0x3d306a78	0.043070287
48	0x39611ff1	0.00021469571

layers.0.0.weight f4 [100, 49]
0	0x3da5128b	0.080601774
1	0x3ddf4f64	0.109038144
2	0xbddc1a1d	-0.10747168
3	0x3dc17a14	0.09447113
4	0xbe2e15c1	-0.17000486
5	0x3d770c38	0.060314387
6	0xbd96e78d	-0.073683836
7	0xbe0a5cf3	-0.1351202
8	0x3db535df	0.08848166
9	0x3dd86b1d	0.10567305
10	0x3e677d50	0.22606397
11	0xbdebb756	-0.11509578
12	0x3dafc25c	0.08581993
13	0xbdd88a6c	-0.10573277
14	0xbd2b2a83	-0.04178859
15	0xbd6c5754	-0.05770047
16	0x3b7a786d	0.0038218752
17	0x3d1c9b2c	0.03823392
18	0x3e2422fb	0.16028969
19	0x3dcceb90	0.100058675
20	0xbde16d42	-0.110071674
21	0xbdf0b8db	-0.117540084
22	0x3d08b926	0.033379696
23	0xbe161b02	-0.1465874
24	0x3df3e501	0.119089134
25	0x3d442318	0.04788503
26	0xbdf0f23b	-0.11764952
27	0x3dca314e	0.098726854
28	0x3c8d37aa	0.017238457
29	0x3e1b2e36	0.15154347
30	0xbdc5a9a9	-0.09651501
31	0xbda84b89	-0.08217532
32	0x3cd7400c	0.026275657
33	0x3d922aac	0.07137045
34	0xbda7c2a1	-0.081914194
35	0xbc495098	-0.012287281
36	0x3e0efdcc	0.13964003
37	0x3d6f99ce	0.05849629
38	0x3db6f641	0.08933688
39	0xbdb3be59	-0.0877654
40	0xbe13d212	-0.14435604
41	0xbe0af0dc	-0.13568443
42	0x3c6e337d	0.014538643
43	0x3df9a7ea	0.1219023
44	0x3d12e145	0.035859365
45	0x3db8ed2f	0.09029614
46	0x3da7a9e7	0.08186703
47	0xbdb9f6e8	-0.09080297
48	0xbd9ec908	-0.077531874
49	0xbe1cf48f	-0.15327667
50	0x3da5f0bc	0.08102557
51	0xbe1950b7	-0.14972197
52	0xbc67d2ef	-0.014149412
53	0x3dcd5ecd	0.100278474
54	0x3d9a5a15	0.07536713
55	0x3db495c4	0.08817628
56	0xbdfc071c	-0.123060435
57	0xbe005bf5	-0.12535079
58	0xbdf54dfd	-0.11977766
59	0xbe00ed72	-0.12590578
60	0x3c91a2fc	0.017777912
61	0x3d6e382b	0.058159035
62	0xbd897f71	-0.06713761
63	0xbe114c4e	-0.14189264
64	0xbe2284ff	-0.15871046
65	0x3de95699	0.1139347
66	0x3e0d00df	0.13769864
67	0xbdc2eb9f	-0.095175974
68	0xbd175d4c	-0.03695421
69	0x3b9ad5b1	0.004725181
70	0xbb474a39	-0.003040923
71	0x3ca4c55e	0.020113643
72	0xbdaab453	-0.08335175
73	0xbdb6d468	-0.08927232
74	0xbad59461	-0.0016294831
75	0xbd58525e	-0.052812926
76	0x3d7fb4b5	0.062428195
77	0xbe0dc173	-0.13843326
78	0x3dc858a1	0.097825296
79	0x3cde93df	0.02717012
80	0xbe2d1242	-0.16901496
81	0x3da4fcac	0.08056006
82	0x39ae753a	0.00033275207
83	0x3ddecda9	0.1087907
84	0xbe3f8927	-0.18704663
85	0x3d91f329	0.07126457
86	0xbdb2688f	-0.08711349
87	0xbde56d72	-0.11202516
88	0xbd04fecd	-0.03246956
89	0x3d9c0be7	0.07619458
90	0xbbf4f0e1	-0.007475004
91	0x3dfc9344	0.12332776
92	0xbdf5a3eb	-0.119941555
93	0x3d11d6dd	0.0356053
94	0xbd7f06d2	-0.062262364
95	0xbcae482b	-0.021274647
96	0xbdfd3e8d	-0.12365446
97	0xbe26611b	-0.1624798
98	0xbd61bcc5	-0.055111665
99	0x3e3e6797	0.18594204
100	0xbd756878	-0.059914082
101	0xbd8000a3	-0.062501214
102	0xbdf8499b	-0.12123414
103	0x3d89ac3f	0.067223065
104	0x3c750a11	0.014956013
105	0xbb270ab3	-0.0025488555
106	0xbd95f357	-0.07321804
107	0xbc456f9e	-0.012050537
108	0x3e20031d	0.15626188
109	0xbcd0e13c	-0.025498025
110	0xbde06097	-0.10955923
111	0xbd835d19	-0.06414241
112	0x3d14fbeb	0.03637306
113	0xbdee6e32	-0.11642112
114	0x3d31d08f	0.043411788
115	0xbd69021a	-0.05688677
116	0xbc2307dd	-0.009950605
117	0x3da3cd90	0.07998192
118	0x3e0e3b05	0.13889702
119	0xbb80f881	-0.003935874
120	0x3daeb2e3	0.08530214
121	0x3d4d5907	0.05013373
122	0xbc79ad5e	-0.015239088
123	0x3d355b98	0.044276804
124	0xbd6f2355	-0.058383305
125	0x3d71c742	0.059027918
126	0xbd1f45ad	-0.038884807
127	0x3de76549	0.112986155
128	0xbd0fa1d0	-0.035066426
129	0x3dbeaec1	0.093106754
130	0xbd937ce7	-0.072015576
131	0xbdfa5e3e	-0.122250065
132	0x3e441afe	0.19150922
133	0xbd49f403	-0.049304973
134	0x3db52f3b	0.08846899
135	0x3d9ea1d0	0.07745707
136	0xbdef122e	-0.116733894
137	0xbd9d52fb	-0.07681843
138	0xbdd6d49b	-0.1048977
139	0x3e07d94d	0.13266487
140	0xbba812e0	-0.005129203
141	0xbd2c022a	-0.04199425
142	0x3d035244	0.032060876
143	0x3dd24103	0.10266306
144	0x3c93cd66	0.018042278
145	0x3d793d71	0.06084961
146	0xbd4099c3	-0.04702164
147	0x3d94a3f6	0.072578356
148	0x3daf5093	0.0856029
149	0x3c51d65f	0.012807458
150	0xbcda2bae	-0.026632156
151	0xbd60e01f	-0.05490124
152	0x3d5eb1db	0.054368835
153	0x3b8cd44e	0.0042977696
154	0xbdcadeaf	-0.09905755
155	0x3d5e61d0	0.0542925
156	0x3e276880	0.16348457
157	0x3da9a9a0	0.082843065
158	0xbc55d10c	-0.013050329
159	0xbc0fe038	-0.008781485
160	0xbc0170a0	-0.007900387
161	0x3c918abf	0.017766355
162	0x3d43434b	0.047671597
163	0x3bc2d0f6	0.0059453202
164	0x3dcdfe19	0.10058231
165	0x3dddbc58	0.10826939
166	0xbc2cd7b7	-0.010549477
167	0x3c1c8562	0.009553285
168	0xbcf3691a	-0.029713202
169	0x3d7497ca	0.05971507
170	0x3c820767	0.01587267
171	0x3c2a5fd1	0.010398821
172	0xbdf65816	-0.1202852
173	0xbe2231a5	-0.1583925
174	0x3d00184c	0.03127317
175	0xbe0d7766	-0.13815078
176	0x3da19915	0.07890526
177	0xbe1b0665	-0.15139158
178	0x3dac7714	0.0842115
179	0x3d988b72	0.07448472
180	0x3c01c386	0.007920152
181	0x3dfa3399	0.12216873
182	0x3b88d50b	0.0041757873
183	0xbd4442db	-0.04791532
184	0xbcbe8701	-0.023257734
185	0xbd43ee80	-0.047834873
186	0xbbe189ec	-0.0068828966
187	0x3df0e396	0.117621586
188	0xbde3dc91	-0.11126054
189	0xbdb45833	-0.08805885
190	0xbce51915	-0.027966062
191	0xbe0c5c38	-0.13707054
192	0xbe32c1d8	-0.17456758
193	0x3cf33aea	0.029691178
194	0xbd34d2f1	-0.044146482
195	0x3c9aabd9	0.018880771
196	0x3d6bcd2e	0.05756872
197	0x3c472cea	0.012156704
198	0x3ddbe251	0.10736526
199	0x3b9695a9	0.0045954776
200	0xbdb8be6f	-0.09020697
201	0x3da7c720	0.08192277
202	0x3da36203	0.079776786
203	0x3d904880	0.07045078
204	0xbdd6634d	-0.10468159
205	0xbd40c89d	-0.04706632
206	0x3de1d336	0.110266134
207	0x3cd58c5e	0.026067909
208	0xbdf9371c	-0.121687144
209	0x3e050f7e	0.12994191
210	0x3d7c3bb6	0.061580382
211	0x3deff860	0.11717296
212	0x3dca27a8	0.09870845
213	0xbde4660e	-0.11152278
214	0x3df3c0da	0.11902018
215	0x3e03495b	0.12820952
216	0x3c586a72	0.013208972
217	0x3d0c0cf0	0.034192026
218	0x3d3f7990	0.04674679
219	0x3d95321c	0.07284948
220	0x3d9ac212	0.07556547
221	0xbdab1735	-0.08354036
222	0x3d1e5ae5	0.038660903
223	0xbd3528c7	-0.04422834
224	0xbd3c133a	-0.045916773
225	0x3dc7861b	0.097423755
226	0xbcf6a8f3	-0.030109858
227	0xbddb9729	-0.10722191
228	0xbcf25375	-0.029580811
229	0x3baa555b	0.0051981634
230	0xbdc95633	-0.09830894
231	0xbd789af2	-0.060694642
232	0xbe13429d	-0.1438088
233	0xbd96f293	-0.07370486
234	0x3da947f8	0.0826568
235	0xbcc008ed	-0.023441756
236	0xbdab9f0c	-0.08379945
237	0xbdad134b	-0.084509455
238	0x3dd44586	0.10364823
239	0x3daa36c3	0.08311226
240	0xbdbc5cd1	-0.09197391
241	0xbe5cf223	-0.21576743
242	0xbe32b671	-0.17452408
243	0xbbd96757	-0.0066346335
244	0xbe13f7ea	-0.1445004
245	0x3bd6cf55	0.0065554776
246	0x3da46334	0.08026734
247	0x3dcf9f27	0.10137778
248	0xbdc131f1	-0.09433354
249	0xbe12e432	-0.14344862
250	0xbac2ce2f	-0.0014862473
251	0x3de1ea66	0.11031036
252	0x3e076e48	0.13225663
253	0x3c443689	0.011975893
254	0x3c6e208f	0.01453413
255	0x3d850a33	0.06496086

layers.0.2.weight f4 [100]
0	0x3f8443f9	1.0333244
1	0x3f8e7c44	1.1131673
2	0x3f848385	1.0352637
3	0x3f81c0fc	1.0137019
4	0x3f867283	1.0503696
5	0x3f80ac4e	1.0052583
6	0x3f840cec	1.0316443
7	0x3f799306	0.97489965
8	0x3f831b3f	1.024269
9	0x3f82352f	1.017248
10	0x3f6ea5f2	0.9322196
11	0x3f9036aa	1.1266682
12	0x3f7cf75d	0.98814946
13	0x3f86c1f8	1.0527945
14	0x3f816d71	1.0111524
15	0x3f8dae44	1.1068807
16	0x3f680116	0.90626657
17	0x3f6d6d8c	0.9274528
18	0x3f7b5795	0.98180515
19	0x3f8654e5	1.0494658
20	0x3f827c04	1.0194097
21	0x3f82b8fc	1.0212703
22	0x3f790ec5	0.9728816
23	0x3f7b59a4	0.98183656
24	0x3f7723f5	0.9653924
25	0x3f7d0647	0.98837703
26	0x3f7a1d1e	0.9770068
27	0x3f8aa900	1.0832825
28	0x3f82b113	1.0210289
29	0x3f826987	1.0188454
30	0x3f82bc4b	1.0213712
31	0x3f8a5287	1.0806435
32	0x3f816e63	1.0111812
33	0x3f889810	1.0671406
34	0x3f76d94d	0.96425325
35	0x3f764fb4	0.9621537
36	0x3f83afad	1.0287987
37	0x3f6ea40d	0.9321907
38	0x3f88683f	1.0656813
39	0x3f8248fc	1.0178523
40	0x3f7bff5b	0.98436517
41	0x3f7b5870	0.9818182
42	0x3f7a076c	0.97667575
43	0x3f86eeac	1.0541587
44	0x3f8590d0	1.0434818
45	0x3f8a754d	1.0817047
46	0x3f85ea5b	1.0462145
47	0x3f89af77	1.0756673
48	0x3f781e26	0.96921
49	0x3f7ed281	0.99539953
50	0x3f812658	1.0089827
51	0x3f83570b	1.0260938
52	0x3f73d322	0.9524404
53	0x3f737187	0.95095104
54	0x3f877643	1.0582966
55	0x3f881fb1	1.0634671
56	0x3f77530b	0.9661109
57	0x3f860a4c	1.0471892
58	0x3f742b46	0.9537853
59	0x3f82cfa7	1.021962
60	0x3f71d993	0.94472617
61	0x3f800a08	1.0003061
62	0x3f71ec94	0.94501615
63	0x3f770a9a	0.9650055
64	0x3f774837	0.96594566
65	0x3f85489b	1.0412782
66	0x3f884057	1.0644635
67	0x3f7937cb	0.9735076
68	0x3f70fb35	0.9413331
69	0x3f753e64	0.95798326
70	0x3f81c7cb	1.0139097
71	0x3f78bbd4	0.971616
72	0x3f81ed39	1.015052
73	0x3f82372e	1.017309
74	0x3f76bb1e	0.9637927
75	0x3f76b5bc	0.96371055
76	0x3f774b06	0.9659885
77	0x3f6933b0	0.91094494
78	0x3f6cdcc7	0.9252438
79	0x3f6de14e	0.9292191
80	0x3f8534a1	1.0406686
81	0x3f7478e2	0.9549695
82	0x3f71481e	0.9425067
83	0x3f70f641	0.94125754
84	0x3f80be1d	1.0058018
85	0x3f8baa9d	1.0911442
86	0x3f6b9004	0.92016625
87	0x3f7b80e0	0.9824352
88	0x3f832b30	1.0247555
89	0x3f8b14e7	1.0865754
90	0x3f847247	1.0347375
91	0x3f71b0ab	0.944102
92	0x3f78ad35	0.9713929
93	0x3f861752	1.0475867
94	0x3f85b9b5	1.0447298
95	0x3f829f4f	1.0204867
96	0x3f6da7fe	0.9283446
97	0x3f829090	1.0200367
98	0x3f82400e	1.0175798
99	0x3f8472dc	1.0347552

layers.0.2.bias f4 [100]
0	0x3b774a2b	0.0037733417
1	0x3d36e970	0.044656217
2	0x3cc878e6	0.024471711
3	0xbce93b09	-0.028470533
4	0x3d24bb46	0.04021766
5	0x3da0425c	0.07825157
6	0x3e2b8760	0.1675086
7	0x3d79c8cd	0.060982514
8	0xbcf5eda5	-0.030020544
9	0xbd616f60	-0.055037856
10	0x3e2f77cc	0.17135543
11	0xbd37e1b3	-0.044892978
12	0x3cb8ee68	0.022574618
13	0xbd216afa	-0.03940866
14	0x3ddcf0a9	0.1078809
15	0xbdd4a4b3	-0.103829764
16	0xbda484cd	-0.08033142
17	0x3d9c9868	0.07646257
18	0x3d316d3a	0.043317057
19	0xbb646fb2	-0.0034856615
20	0xbc76696b	-0.015039782
21	0x3d9a221a	0.075260356
22	0x3c46bcfa	0.012130016
23	0x3d97ee26	0.0741847
24	0x3d70a8ed	0.05875485
25	0xbb55faf3	-0.0032650798
26	0xbd304874	-0.043037847
27	0x3cea31cc	0.028588198
28	0xbd2cfe15	-0.0422345
29	0x3d801781	0.06254483
30	0x3d6e7663	0.05821837
31	0xbd4fb16c	-0.050706312
32	0xbd416666	-0.047216795
33	0xbc9db251	-0.019250067
34	0x3e319ddc	0.17345375
35	0x3cdb1ca7	0.026747061
36	0x3ca8da2a	0.020611841
37	0x3d6b2ae8	0.057413965
38	0x3cb13a2d	0.021634186
39	0x3a46629c	0.00075677945
40	0x3d42f1cc	0.047593877
41	0x3c57c13c	0.013168629
42	0xbd18f923	-0.03734697
43	0x3d2e0278	0.042482823
44	0x3d2027d8	0.039100498
45	0x3cac7b5e	0.02105492
46	0x3ce9d9aa	0.028546173
47	0xbc37da46	-0.011221474
48	0xbb7e0d36	-0.0038765199
49	0xbb7e6dd7	-0.0038822794
50	0xbc98e14e	-0.018662121
51	0xbcf7586c	-0.03019353
52	0x3d3c8a30	0.046030223
53	0xbba520d5	-0.0050393143
54	0x3d08a3b7	0.033359256
55	0x3ce1ba28	0.027554587
56	0x3d133288	0.035936862
57	0x3da52e18	0.08065432
58	0x3d97716e	0.07394682
59	0x3d47ffdc	0.04882799
60	0xb9d58c95	-0.00040731268
61	0xbd14e004	-0.03634645
62	0xbc250154	-0.010071117
63	0xbd2ca58b	-0.04215006
64	0x3dfac3c2	0.12244369
65	0x3c18b617	0.009320757
66	0xbbcffa9d	-0.006347014
67	0x3de16346	0.11005263
68	0x3cb74725	0.022372792
69	0x3e010bd6	0.12602171
70	0xbd19f693	-0.037588667
71	0x3daf2719	0.08552379
72	0xbd4015d7	-0.046895828
73	0x3d88f7fa	0.06687923
74	0x3d313f05	0.04327299
75	0x3da50797	0.08058088
76	0xbc6569ec	-0.0140023045
77	0x3da979ea	0.082752064
78	0xbd05cabf	-0.032664057
79	0x3c8d7a62	0.01727027
80	0x3dc673e6	0.096900746
81	0x3d746df4	0.059675172
82	0x3caecd1a	0.021338034
83	0xbd142d20	-0.036175847
84	0x3dbcc375	0.09216968
85	0xbad44182	-0.0016193839
86	0x3dcd6b3e	0.100302204
87	0xbd2dc4bb	-0.042423945
88	0x3d2371af	0.03990334
89	0x3d4915ba	0.049092986
90	0xbcd71c8b	-0.026258728
91	0x3c780f01	0.015140296
92	0x3d459c30	0.048244655
93	0xbcb8e492	-0.022569928
94	0x3c5a3fc5	0.013320868
95	0x3c894e42	0.016760949
96	0x3c9b7717	0.018977685
97	0x3cfae0a6	0.030624699
98	0x3d7d98b9	0.061913226
99	0x3c1eecad	0.009699983

layers.0.2.running_mean f4 [100]
0	0x3e5b338e	0.21406385
1	0x3ebb4a8a	0.36580306
2	0x3dee2bd9	0.11629457
3	0x3e1bf358	0.15229547
4	0x3ded07d4	0.11573759
5	0x3dded8d4	0.108812004
6	0x3e26696d	0.16251154
7	0x3e714744	0.23562342
8	0x3e41de92	0.1893256
9	0x3e03b69c	0.12862629
10	0x3e4eff5d	0.20214601
11	0x3dbc9cd8	0.09209603
12	0x3ea4820b	0.32130465
13	0x3e0ce09c	0.13757557
14	0x3ebd2881	0.36944965
15	0x3e109d97	0.14122616
16	0x3e7aa5bb	0.24477284
17	0x3ec67759	0.3876293
18	0x3e3eb310	0.18622994
19	0x3e0a0691	0.13479067
20	0x3e14017e	0.14453694
21	0x3df39ea5	0.118954934
22	0x3ed689b1	0.41901925
23	0x3e02cb17	0.12772785
24	0x3e12c20c	0.14331836
25	0x3e7a61ac	0.24451321
26	0x3dc2a098	0.09503287
27	0x3e65fbed	0.22459383
28	0x3ea1133c	0.31459987
29	0x3e39b155	0.18134053
30	0x3e8bc219	0.27296522
31	0x3e81590e	0.25263256
32	0x3e33e9bd	0.17569633
33	0x3e24e37a	0.161024
34	0x3e2886a3	0.1645761
35	0x3e5b97f3	0.21444683
36	0x3e1de092	0.15417698
37	0x3ddefa66	0.108876035
38	0x3de5d029	0.11221344
39	0x3e8df803	0.2772828
40	0x3ddc7977	0.10765355
41	0x3e8ddff9	0.2770994
42	0x3ea5b457	0.3236415
43	0x3dd36c3e	0.1032338
44	0x3e4ec000	0.2019043
45	0x3e4497ea	0.19198576
46	0x3eced435	0.40396276
47	0x3dc2c79e	0.0951073
48	0x3e9e5898	0.30926967
49	0x3e5895e0	0.21150923
50	0x3e716d78	0.23576915
51	0x3e268cff	0.16264723
52	0x3e36c3ba	0.17848101
53	0x3e83bcab	0.2572988
54	0x3e14389a	0.14474717
55	0x3ebdc24c	0.370623
56	0x3f0b244a	0.5435225
57	0x3e166fd5	0.14691098
58	0x3efafc78	0.49020743
59	0x3e133aa4	0.14377838
60	0x3ecafdb0	0.39646673
61	0x3ef34735	0.47515264
62	0x3e9d7f43	0.30761155
63	0x3e18f949	0.14938845
64	0x3e876ec7	0.26451704
65	0x3ea0588e	0.31317562
66	0x3e8de5f9	0.27714518
67	0x3db23c11	0.08702863
68	0x3ed27a62	0.41108996
69	0x3ede27a6	0.43389624
70	0x3edec3f4	0.43508875
71	0x3ddbed99	0.107386775
72	0x3e3c957c	0.18416399
73	0x3e479887	0.19491778
74	0x3e33046a	0.17482153
75	0x3e108d42	0.14116386
76	0x3ecdf30a	0.40224487
77	0x3e351b63	0.17686228
78	0x3dea9333	0.11453857
79	0x3e1ae20c	0.15125293
80	0x3e78325d	0.24237962
81	0x3ddc890a	0.107683256
82	0x3ea474de	0.32120413
83	0x3e22ee59	0.15911235
84	0x3e2cb3c2	0.16865447
85	0x3eb9be6e	0.362781
86	0x3e61b9b0	0.2204349
87	0x3e5d3a66	0.21604308
88	0x3e906a90	0.282063
89	0x3edbddf7	0.42942783
90	0x3e919b8a	0.2843898
91	0x3e3ed6c3	0.18636613
92	0x3ea7b24a	0.3275321
93	0x3e99e60c	0.30058324
94	0x3e8530d2	0.2601381
95	0x3e4413e4	0.19148213
96	0x3e242f20	0.16033602
97	0x3e7b18fd	0.24521251
98	0x3e7a9b8b	0.24473397
99	0x3e1fc99a	0.15604249

layers.0.2.running_var f4 [100]
0	0x3e49482b	0.19656436
1	0x3e0d2ea6	0.13787326
2	0x3dd2e8c6	0.10298304
3	0x3d8ad17e	0.06778239
4	0x3d93993e	0.07206963
5	0x3d131e65	0.03591766
6	0x3e70fb42	0.23533347
7	0x3e54978d	0.20760937
8	0x3d1f994e	0.038964562
9	0x3e1ae12d	0.1512496
10	0x3e8db501	0.27677158
11	0x3be8b2db	0.0071013994
12	0x3d82435c	0.06360504
13	0x3cb0588a	0.021526594
14	0x3ec571f4	0.38563502
15	0x3debccb9	0.11513657
16	0x3e58f149	0.21185793
17	0x3dc62c8c	0.096764654
18	0x3e29b66d	0.16573496
19	0x3c9852a9	0.018594103
20	0x3d54900d	0.05189519
21	0x3c2e1a10	0.010626331
22	0x3e5addad	0.21373625
23	0x3dad81be	0.08472012
24	0x3d027325	0.03184809
25	0x3d91266e	0.07087408
26	0x3d97ac0a	0.07405861
27	0x3d715f6e	0.0589289
28	0x3e812081	0.2522011
29	0x3e1afd23	0.15135626
30	0x3edf81cf	0.43653724
31	0x3e8bbb17	0.27291176
32	0x3e10cff0	0.14141822
33	0x3d7a7e9f	0.06115591
34	0x3e3ddfef	0.18542455
35	0x3e6844a2	0.22682431
36	0x3dd8fff6	0.10595696
37	0x3d22fca0	0.039791703
38	0x3dbe8173	0.09302034
39	0x3e9f5bfe	0.31124872
40	0x3cd02b7e	0.025411364
41	0x3ebbe62e	0.3669905
42	0x3eba50ca	0.36389762
43	0x3c4743ea	0.012162188
44	0x3e9a2c05	0.3011171
45	0x3d9eb461	0.07749248
46	0x3f269dbc	0.65084434
47	0x3c4060d8	0.011741839
48	0x3ed6f9c1	0.41987422
49	0x3dbf8ed2	0.09353413
50	0x3e1955d0	0.14974141
51	0x3db9f2b0	0.09079492
52	0x3dc4e485	0.09613899
53	0x3e98d590	0.29850435
54	0x3d906ed5	0.070523895
55	0x3e019f9e	0.12658545
56	0x3e530899	0.20608748
57	0x3d07a164	0.0331129
58	0x3f503550	0.8133135
59	0x3d3df5a3	0.046376836
60	0x3f10957e	0.56478107
61	0x3e2a3c9e	0.16624686
62	0x3ead73be	0.33877367
63	0x3d9389b3	0.072039984
64	0x3ecbee78	0.39830375
65	0x3ec6408a	0.38721114
66	0x3eb725e0	0.35771084
67	0x3d24cf9a	0.040237047
68	0x3dd10656	0.102062866
69	0x3f7d8220	0.9902668
70	0x3f336973	0.7008278
71	0x3eb11868	0.34588933
72	0x3e215d1f	0.15758179
73	0x3e2954a8	0.165362
74	0x3e11505d	0.14190812
75	0x3d90ffbc	0.070800275
76	0x3df4728d	0.11935911
77	0x3d6d8da4	0.057996407
78	0x3db2bbbd	0.087272145
79	0x3d6f7307	0.058459308
80	0x3e306da5	0.17229326
81	0x3d45146e	0.048115186
82	0x3f004750	0.50108814
83	0x3d5268b7	0.051369395
84	0x3dbf0bf8	0.09328455
85	0x3ec3b592	0.38224465
86	0x3e6c8fd5	0.23101743
87	0x3d5eaf22	0.05436624
88	0x3ec8be1f	0.3920755
89	0x3f061bda	0.5238625
90	0x3d9ab71a	0.07554455
91	0x3dcf4b35	0.101217665
92	0x3e98ad37	0.29819652
93	0x3dcde483	0.10053351
94	0x3e94a644	0.290331
95	0x3d85995e	0.06523393
96	0x3dcef0b5	0.10104505
97	0x3d75e63a	0.060034014
98	0x3e50aeec	0.20379227
99	0x3cd0ecbd	0.02550351

layers.1.0.weight f4 [100, 100]
0	0x3d398a15	0.0452977
1	0x3b4dac7d	0.0031383329
2	0xbc82f7cb	-0.015987298
3	0xbd8edd0b	-0.06975754
4	0xbccdfd9c	-0.025145344
5	0x3d79772e	0.060904674
6	0x3dcbd582	0.09952833
7	0xbc138ccb	-0.009005736
8	0x3dce7a4e	0.100819215
9	0x3cb55b31	0.02213821
10	0xbdec9608	-0.11552054
11	0xbd451f5a	-0.048125602
12	0x3caa9967	0.020825101
13	0xbddf7463	-0.10910871
14	0xbd3e8ead	-0.046522785
15	0x3d8f3617	0.06992739
16	0x3dd535dc	0.104106635
17	0xbc9043cc	-0.017610453
18	0x3d6fc5ce	0.05853825
19	0xbd4bacb2	-0.049725242
20	0x3cc7f71e	0.024409827
21	0xbd987bbd	-0.07445476
22	0x3df13c31	0.11779059
23	0xbdc12ed0	-0.09432757
24	0xbd1f2ec4	-0.03886296
25	0x3dd4cfb8	0.10391182
26	0x3db7f158	0.089815795
27	0xbd74a82d	-0.059730697
28	0x3d37e240	0.044893503
29	0x3deed91c	0.11662504
30	0x3d4dd238	0.05024931
31	0x3c9656ff	0.01835203
32	0xbcb81569	-0.022471147
33	0x3e2738eb	0.16330306
34	0xbc074ae2	-0.0082576
35	0x3ccf446f	0.025301186
36	0xbd57f9fc	-0.052728638
37	0xbd6c74d9	-0.057728622
38	0xbd7fbaf0	-0.062434137
39	0x3d98640a	0.07440956
40	0xbd039d8e	-0.032132678
41	0x3ad22b2d	0.0016034596
42	0x3dc05437	0.09391063
43	0xbd9ea37d	-0.07746027
44	0x3bc669c8	0.0060550906
45	0xbdf9f974	-0.122057825
46	0x3d9a18bb	0.07524248
47	0x3dc6efd7	0.097137146
48	0x3dfe4066	0.12414627
49	0xbd49a23a	-0.049226977
50	0xbd8fd095	-0.07022206
51	0xbdb2ccbf	-0.087304585
52	0x3dfbc260	0.122929335
53	0x3d9763af	0.0739206
54	0x3d449f8c	0.04800372
55	0x3d9d97af	0.07694947
56	0xbd7880d4	-0.060669735
57	0xbd081e4a	-0.03323201
58	0xbd2e009e	-0.042481057
59	0xbdb094a3	-0.086221
60	0xbdd6ef31	-0.10494841
61	0xbd0743c9	-0.03302363
62	0xbcd0a540	-0.025469422
63	0xbd821a9e	-0.06352733
64	0xbd2cc7f8	-0.042182893
65	0x3c03c70a	0.00804306
66	0x3d20bb48	0.039241105
67	0xbdc08b53	-0.09401574
68	0xbcfb06a9	-0.030642824
69	0xbdae5a20	-0.08513284
70	0x3d1a6a13	0.037698817
71	0x3cd89bff	0.026441572
72	0x3c420758	0.011842571
73	0xbd8c006f	-0.0683602
74	0xbc8e88e0	-0.017399251
75	0xbb8aa0fa	-0.0042306157
76	0x3dee8152	0.1164576
77	0xbd49011e	-0.04907333
78	0x3d142f64	0.036178008
79	0xbcf9eb3f	-0.030507682
80	0xbdc3201b	-0.09527608
81	0x3da75f0a	0.08172424
82	0xbd7c46c6	-0.061590932
83	0x3d9f2464	0.07770613
84	0x3d690dee	0.05689805
85	0x3df5b345	0.119970836
86	0xbd1bf56c	-0.03807585
87	0x3d410081	0.04711962
88	0xbca5d3a2	-0.020242516
89	0xbd913b3c	-0.07091376
90	0x3e0924e2	0.13392976
91	0xbcb1cf19	-0.021705197
92	0x3d8f9399	0.07010574
93	0x3c13a53f	0.009011566
94	0x3d31bdb6	0.043393813
95	0x3d9bef83	0.076140426
96	0xbd8c4906	-0.068498656
97	0xbd4deaf6	-0.050272904
98	0xbd578470	-0.052616537
99	0x3ce10e9a	0.027472783
100	0x3d247f17	0.040160265
101	0x3d2e24bd	0.042515505
102	0x3da35cb8	0.07976669
103	0x3b042850	0.002016563
104	0x3dddc151	0.10827888
105	0x3d4c0b11	0.04981524
106	0xbce81820	-0.028331816
107	0x3da4ed17	0.08053034
108	0xbc7026ba	-0.014657671
109	0xbd27387a	-0.040825345
110	0x3cab3f2e	0.02090415
111	0x3e375e75	0.17907126
112	0xbdcf4be0	-0.10121894
113	0x3d33fead	0.04394405
114	0xbd7218e1	-0.059105758
115	0x3dbc690e	0.09199725
116	0xbdab860f	-0.08375179
117	0xbd29c7d8	-0.04145035
118	0x3d938a0b	0.07204064
119	0xbdfe08a2	-0.1240399
120	0xbc23ae97	-0.009990356
121	0xbe210c94	-0.15727454
122	0xbcb96154	-0.022629417
123	0x3d2c96af	0.04213589
124	0xbe3aef68	-0.18255389
125	0x3d7c3b52	0.06158001
126	0xbbc78abe	-0.0060895374
127	0x3e1dca01	0.1540909
128	0x3d84773e	0.06468056
129	0xbd7d7ab6	-0.061884604
130	0xbda5121d	-0.080600955
131	0x3cda77ea	0.026668508
132	0x3c62d7a0	0.013845354
133	0xbd4376b2	-0.04772062
134	0xbcbbdcbd	-0.022932405
135	0xbd5a6441	-0.053318266
136	0x3d4f5f8a	0.050628223
137	0x3cc2f4a2	0.02379829
138	0xbde351aa	-0.110995606
139	0xbc0ee0be	-0.008720575
140	0xbd080f78	-0.033217877
141	0xbd0cb997	-0.03435668
142	0xbc542919	-0.012949252
143	0x3d824841	0.063614376
144	0x3dd6a8e5	0.10481433
145	0xbe194715	-0.14968522
146	0x3c398386	0.011322862
147	0xbda3d438	-0.07999462
148	0x3bb2dc2f	0.005458377
149	0xbdc3f618	-0.09568423
150	0xbd80eb08	-0.06294829
151	0xbdeeb0b3	-0.116547965
152	0x3ca474f2	0.020075295
153	0xbd1eea17	-0.038797464
154	0x3ce88979	0.028385865
155	0x3d1b22c6	0.03787496
156	0x3d95ef66	0.07321052
157	0xbcaa6416	-0.020799678
158	0xbc97d99d	-0.018536383
159	0xbde90c0a	-0.113792494
160	0x3cb22633	0.02174673
161	0x3d91de9c	0.071225375
162	0xbd0e1c91	-0.03469521
163	0x3da59740	0.08085489
164	0xbdc5fe5c	-0.09667656
165	0xbe0e252f	-0.13881372
166	0xbd1db5e4	-0.038503543
167	0xbe06e151	-0.13171889
168	0x3d85bb00	0.06529808
169	0x3d9a9251	0.07547439
170	0x3cf75b02	0.030194763
171	0x3d398269	0.045290384
172	0xbd210766	-0.039313696
173	0xbcad0992	-0.021122728
174	0xbd54c1ce	-0.05194264
175	0x3c0e623c	0.008690413
176	0x3c1c934d	0.009556604
177	0xbd15c0d4	-0.03656085
178	0x3c61ee05	0.013789658
179	0xbd46afc4	-0.048507467
180	0x3d3804a8	0.044926316
181	0x3d401ebb	0.046904307
182	0xbdbffa4f	-0.093739145
183	0x3ca7be06	0.020476352
184	0xbd91a38e	-0.07111274
185	0xbdcf574c	-0.101240724
186	0x3cd43d23	0.025908059
187	0x3d8b9a40	0.0681653
188	0xbc79faa5	-0.015257512
189	0xbca68103	-0.02032519
190	0x3c8e16a0	0.017344773
191	0x3dd3d3c3	0.10343125
192	0xbcef7ee9	-0.02923532
193	0x3d15a2fb	0.036532383
194	0x3beb68cd	0.007184124
195	0xbe0da8cc	-0.13833922
196	0xbd362452	-0.04446823
197	0xbcf57212	-0.02996162
198	0xbcfbfb09	-0.030759351
199	0x3dc3481b	0.095352374
200	0x3ce779b5	0.028256277
201	0xbda90c5d	-0.08254311
202	0xbd925083	-0.07144263
203	0x3d81315b	0.06308242
204	0x3dbd60b3	0.092469595
205	0x3dc34684	0.09534934
206	0xbdaf92e2	-0.085729375
207	0x3d2ba681	0.041906837
208	0xbd8c0704	-0.068372756
209	0x3d940595	0.07227627
210	0xbd5d9620	-0.05409825
211	0x3df4db07	0.11955839
212	0xbd50e881	-0.051002983
213	0xbde8ee1f	-0.11373543
214	0x3cb1df2d	0.021712864
215	0x3cb6004f	0.022216944
216	0xbdbb01c6	-0.09131198
217	0x3c8f9a1c	0.01752954
218	0xbc0afc72	-0.008483039
219	0xbdbae474	-0.09125605
220	0x3d1f0daa	0.03883139
221	0xbd22cbde	-0.039745204
222	0xbd9e84c0	-0.07740164
223	0x3d68a268	0.056795508
224	0xbe28b9a3	-0.16477065
225	0xbd8d2962	-0.06892659
226	0x3d6802e9	0.0566434
227	0x3d85cdef	0.06533419
228	0x3c83074d	0.015994692
229	0x3cf403d3	0.02978698
230	0xbaf0f9da	-0.0018385008
231	0x3b5d8f48	0.0033807326
232	0xbce62430	-0.028093427
233	0xbd634920	-0.05548966
234	0x3d5d5065	0.05403175
235	0xbd87c02d	-0.066284515
236	0x3d209cc3	0.039212
237	0x3d3444b0	0.044010818
238	0x3d86e1a0	0.06586003
239	0x3ca0bae8	0.019620374
240	0xbddeeebc	-0.10885379
241	0x3ac0a3d8	0.0014697267
242	0xbc701491	-0.014653341
243	0xbdf455d7	-0.11930435
244	0xbd818734	-0.06324616
245	0xbdf5be8f	-0.11999237
246	0x3d41a7f8	0.047279328
247	0xbc4554aa	-0.012044111
248	0x3d5ccf8e	0.053908877
249	0x3c4303b2	0.0119027365
250	0xbc80a942	-0.015705708
251	0xbe242a7c	-0.16031832
252	0xbdb45be8	-0.08806592
253	0xbbcc25b0	-0.0062300786
254	0x3d921fe4	0.07134989
255	0x3d460353	0.048343014

layers.1.2.weight f4 [100]
0	0x3f701e1d	0.9379595
1	0x3f87331c	1.0562472
2	0x3f7db947	0.99110836
3	0x3f77e390	0.9683161
4	0x3f748d3a	0.95527995
5	0x3f749e8e	0.95554435
6	0x3f715adb	0.9427926
7	0x3f72df69	0.94872147
8	0x3f71eaeb	0.9449908
9	0x3f8414f8	1.0318899
10	0x3f731585	0.9495471
11	0x3f795f78	0.974113
12	0x3f67ebb0	0.90594006
13	0x3f72bb07	0.9481663
14	0x3f71795c	0.94325805
15	0x3f75928a	0.95926726
16	0x3f82c5f7	1.0216664
17	0x3f80b6c8	1.005578
18	0x3f690e48	0.91037416
19	0x3f7b4859	0.9815727
20	0x3f6f1f8d	0.9340752
21	0x3f7dbea7	0.9911904
22	0x3f78f506	0.97248876
23	0x3f733bd8	0.9501319
24	0x3f74ed50	0.9567461
25	0x3f72ca56	0.9483999
26	0x3f703f8d	0.9384697
27	0x3f6fbb4b	0.9364516
28	0x3f6e9b11	0.9320536
29	0x3f6ca4d4	0.9243901
30	0x3f657edc	0.896467
31	0x3f72bc67	0.9481873
32	0x3f791de1	0.97311217
33	0x3f84b9e5	1.036923
34	0x3f721198	0.94558096
35	0x3f7580cc	0.95899653
36	0x3f6833e5	0.90704185
37	0x3f71315e	0.94215953
38	0x3f70e70a	0.9410254
39	0x3f6841ed	0.90725595
40	0x3f747bff	0.95501703
41	0x3f83021f	1.0235022
42	0x3f70ee22	0.9411336
43	0x3f7df9e5	0.99209434
44	0x3f714cd3	0.9425785
45	0x3f6f6eeb	0.9352862
46	0x3f76fa50	0.96475697
47	0x3f773dbe	0.96578586
48	0x3f769378	0.9631877
49	0x3f7e154c	0.99251246
50	0x3f6db3cd	0.9285248
51	0x3f72c89b	0.9483735
52	0x3f6be41e	0.92144954
53	0x3f715211	0.9426585
54	0x3f760c49	0.96112496
55	0x3f7a94ed	0.9788349
56	0x3f730ca3	0.9494116
57	0x3f71d24e	0.94461524
58	0x3f723a89	0.9462057
59	0x3f72cb17	0.9484114
60	0x3f715467	0.9426941
61	0x3f856f82	1.0424654
62	0x3f6b0769	0.9180818
63	0x3f856923	1.042271
64	0x3f6b5131	0.91920763
65	0x3f7668c1	0.9625359
66	0x3f734577	0.9502787
67	0x3f7e9ec6	0.9946102
68	0x3f71fd5d	0.94527227
69	0x3f7387b0	0.9512892
70	0x3f79f7f0	0.9764395
71	0x3f769ccf	0.9633302
72	0x3f680f71	0.9064856
73	0x3f6fee7e	0.93723285
74	0x3f71b493	0.9441616
75	0x3f730c0c	0.9494026
76	0x3f76a0c6	0.9633907
77	0x3f6f851f	0.935625
78	0x3f754f1c	0.95823836
79	0x3f750125	0.9570487
80	0x3f778e61	0.9670163
81	0x3f7995cb	0.9749419
82	0x3f82bebd	1.0214459
83	0x3f77d8f5	0.96815425
84	0x3f6ef06c	0.93335605
85	0x3f6f25f5	0.9341729
86	0x3f6fbf72	0.936515
87	0x3f7425bc	0.9537008
88	0x3f75efb5	0.9606889
89	0x3f793c67	0.9735779
90	0x3f725c9b	0.94672555
91	0x3f703dd4	0.9384434
92	0x3f74d683	0.9563982
93	0x3f6a053a	0.91414225
94	0x3f74b14f	0.9558305
95	0x3f739dbb	0.9516255
96	0x3f76ab14	0.96354795
97	0x3f7f52fa	0.9973599
98	0x3f725f2c	0.9467647
99	0x3f6bc279	0.92093617

layers.1.2.bias f4 [100]
0	0xbe9209f7	-0.28523228
1	0x3e99844f	0.29983756
2	0x3e95877a	0.29204923
3	0xbe8c4bed	-0.27401677
4	0x3e88599e	0.26630872
5	0xbe9cc5fc	-0.306198
6	0x3e948e01	0.2901459
7	0xbe8f5412	-0.27993828
8	0x3e834a88	0.256428
9	0x3e8893f5	0.26675382
10	0xbe817216	-0.25282353
11	0x3e823f47	0.25438902
12	0xbe88b661	-0.26701644
13	0xbe90b76b	-0.28264937
14	0xbe867c3c	-0.26266658
15	0xbead88b5	-0.33893362
16	0x3e841574	0.25797617
17	0x3e9c43f8	0.30520606
18	0x3e8c323d	0.2738208
19	0x3e973c57	0.29538223
20	0xbe7f2741	-0.24917318
21	0x3ea3b750	0.31975794
22	0xbe7bd01c	-0.24591106
23	0xbe99b4c8	-0.30020738
24	0xbe8bb7a6	-0.2728855
25	0x3e97d42b	0.2965406
26	0x3e9dd5ee	0.30827278
27	0xbe8a9826	-0.27069205
28	0xbe998721	-0.29985908
29	0x3e9a20d6	0.30103177
30	0xbe8728ac	-0.26398218
31	0xbe95541e	-0.2916574
32	0x3e9854d6	0.29752225
33	0x3e83bfc7	0.25732252
34	0x3e9d54e8	0.3072884
35	0xbe8fc35d	-0.28078738
36	0xbe84e6bf	-0.25957295
37	0x3eae416c	0.34034288
38	0x3e92b288	0.28651834
39	0xbe7df2cd	-0.24799652
40	0xbe976307	-0.2956774
41	0x3e9a5181	0.30140308
42	0xbea2d504	-0.31803143
43	0x3eab51a6	0.3346073
44	0x3e8e154e	0.2775063
45	0xbe9ab7a1	-0.30218223
46	0xbea20350	-0.31643152
47	0xbe7ba418	-0.24574316
48	0xbea047e0	-0.31304836
49	0x3e937b33	0.2880493
50	0x3e87bee2	0.2651282
51	0x3e9ad314	0.30239165
52	0x3e9196be	0.2843532
53	0x3e9dc961	0.30817702
54	0x3e983b1c	0.29732597
55	0x3e81590e	0.25263256
56	0xbe822725	-0.2542049
57	0x3e8a98bc	0.27069652
58	0x3e88d1db	0.26722607
59	0xbea4777d	-0.32122412
60	0xbe8e9634	-0.2784897
61	0x3e9bb09c	0.3040818
62	0xbe8945c0	-0.26811028
63	0x3e9b70e7	0.30359575
64	0xbe9c8f7d	-0.30578223
65	0x3e7ad755	0.24496205
66	0xbe866c98	-0.26254725
67	0x3e82b7ab	0.25530753
68	0xbe92b37e	-0.28652567
69	0xbe7f202a	-0.24914613
70	0xbe927e54	-0.28612006
71	0x3e880369	0.26565102
72	0xbe7a4d21	-0.24443485
73	0xbe98cfd7	-0.2984607
74	0xbe80759b	-0.25089726
75	0x3e90522f	0.281877
76	0xbe9f6892	-0.31134468
77	0xbe8a7bc2	-0.27047545
78	0x3e9792a6	0.2960407
79	0x3e82e0ff	0.25562283
80	0xbe94af00	-0.29039764
81	0x3e99bf6f	0.30028865
82	0x3ea32f7e	0.3187217
83	0x3e897a87	0.26851293
84	0x3e93652e	0.2878813
85	0x3e971abd	0.29512587
86	0x3e862e2c	0.262071
87	0xbe9ab551	-0.30216458
88	0xbe71b7c8	-0.23605263
89	0x3e758209	0.23975386
90	0x3e7237ca	0.23654094
91	0x3e8997f2	0.26873738
92	0xbea81294	-0.32826674
93	0x3ea40a7f	0.32039258
94	0xbe872cb7	-0.26401302
95	0xbe8797ae	-0.2648291
96	0x3e826464	0.25467217
97	0x3e9d15b3	0.30680618
98	0xbe8a32ea	-0.2699197
99	0x3e9a9317	0.30190346

layers.1.2.running_mean f4 [100]
0	0x3e7ea620	0.24868059
1	0x3f08936e	0.5334996
2	0x3ed0f819	0.40814283
3	0x3f7a91b8	0.978786
4	0x3eff86e2	0.49907595
5	0x3ede79b7	0.43452236
6	0x3f72c66a	0.94834006
7	0x3f95fe44	1.1718221
8	0x3ebdd47a	0.3707617
9	0x3ea9f4e4	0.3319465
10	0x3f5a5da3	0.8529913
11	0x3f67b267	0.90506595
12	0x3f03dc2d	0.51507837
13	0x3f72af45	0.9479869
14	0x3f824140	1.0176163
15	0x3f064a20	0.52456856
16	0x3ed213a2	0.41030604
17	0x3f1805fc	0.5938413
18	0x3f5e8528	0.8692193
19	0x3f3c37f4	0.7352288
20	0x3ee1f96e	0.44135612
21	0x3edde8e7	0.43341753
22	0x3edc40ec	0.4301828
23	0x3ea3fe8b	0.32030138
24	0x3eb7a23a	0.35865957
25	0x3f340be0	0.7033062
26	0x3f4ccd4e	0.8000077
27	0x3f23ade7	0.6393723
28	0x3f1fac3d	0.6237219
29	0x3f263837	0.6492953
30	0x3ed91d66	0.42405242
31	0x3ebc1a9c	0.3673905
32	0x3f1d5b7e	0.6146773
33	0x3e92e4b7	0.2869012
34	0x3f157974	0.5838845
35	0x3f609dae	0.877406
36	0x3f1a989a	0.603891
37	0x3f9b235b	1.2120165
38	0x3f46eea6	0.777079
39	0x3f67a5bc	0.90487266
40	0x3f0b5f45	0.54442245
41	0x3ea3d7f0	0.32000685
42	0x3f7f65af	0.9976453
43	0x3ee66582	0.4499932
44	0x3f584996	0.84487283
45	0x3f8b84e2	1.0899928
46	0x3ec1965c	0.37810028
47	0x3ef53949	0.47895268
48	0x3e2fcd2b	0.17168109
49	0x3edf12d3	0.4356905
50	0x3fa6883b	1.3010324
51	0x3f7c3feb	0.9853503
52	0x3f85b86d	1.0446907
53	0x3f03398c	0.51259685
54	0x3ee64bfe	0.44979852
55	0x3f30fc64	0.6913512
56	0x3f81ba53	1.0134987
57	0x3f431f95	0.76220065
58	0x3f301173	0.68776625
59	0x3f122d7c	0.57100654
60	0x3f89e389	1.0772563
61	0x3e8d1371	0.27553895
62	0x3ec4a9a8	0.38410687
63	0x3f00b671	0.50278383
64	0x3f98c959	1.1936446
65	0x3f2babf3	0.6705925
66	0x3f8d054e	1.1017244
67	0x3f16b657	0.5887198
68	0x3f635d33	0.88814086
69	0x3f81b469	1.0133182
70	0x3ecb1f45	0.39672294
71	0x3f00f4e4	0.50373673
72	0x3f8c9059	1.0981551
73	0x3f4d0b8b	0.8009574
74	0x3eff4de7	0.49864122
75	0x3f806b1d	1.0032688
76	0x3ed77647	0.42082426
77	0x3f440680	0.7657242
78	0x3f88b5d5	1.0680491
79	0x3f499329	0.78740174
80	0x3f197be7	0.59954685
81	0x3f1f8021	0.62304884
82	0x3ec25bcc	0.3796066
83	0x3f68cbbd	0.9093588
84	0x3f14ab80	0.5807419
85	0x3f2acc48	0.6671796
86	0x3f0ab8bb	0.54188126
87	0x3f521545	0.82063705
88	0x3ef3a6ad	0.475881
89	0x3efe425b	0.4966
90	0x3f19af15	0.6003278
91	0x3f090f16	0.53538644
92	0x3f095d06	0.5365757
93	0x3f73dd67	0.9525971
94	0x3e9ae6e0	0.3025427
95	0x3f8e1552	1.1100256
96	0x3f1bab7b	0.60808533
97	0x3ef6df73	0.48217353
98	0x3f619ac2	0.88126767
99	0x3f743a7c	0.9540174

layers.1.2.running_var f4 [100]
0	0x3f0243c0	0.5088463
1	0x3e48abda	0.19596806
2	0x3e903b7d	0.28170386
3	0x3f6a81d3	0.91604346
4	0x3f8651ca	1.049371
5	0x3f266d3c	0.6501043
6	0x3fe31531	1.7740842
7	0x40b5a3d0	5.6762466
8	0x3fa1924b	1.262277
9	0x3dd395a2	0.103312746
10	0x408a288a	4.3174486
11	0x3fdffbd9	1.7498733
12	0x4002d911	2.0444987
13	0x4075e43f	3.842056
14	0x402fd27e	2.7472224
15	0x3fb69c50	1.4266453
16	0x3e3e8713	0.18606214
17	0x3f2b308d	0.6687096
18	0x3f7ad8e6	0.9798721
19	0x3f1decd2	0.61689484
20	0x3fe7b5b9	1.8102332
21	0x3ee72f3e	0.4515323
22	0x3f9ee66b	1.2414068
23	0x3fd01af1	1.6258222
24	0x3f859bc7	1.0438164
25	0x3f33cead	0.7023724
26	0x4036bd8e	2.8553195
27	0x3f8ed0f6	1.115752
28	0x3ffe4155	1.9863688
29	0x3fab2102	1.3369448
30	0x3ef39a50	0.4757867
31	0x3f93e21a	1.1553376
32	0x3f96aca6	1.1771438
33	0x3d9aa406	0.07550816
34	0x3fabf4bd	1.3434063
35	0x3f2c5a77	0.6732554
36	0x3f58102b	0.8439967
37	0x40970ded	4.72045
38	0x3ffb08d8	1.9612074
39	0x404b7d84	3.1795359
40	0x3fb85076	1.4399555
41	0x3e463797	0.19357143
42	0x3f9c0dfa	1.2191765
43	0x3eaca4ba	0.33719426
44	0x3fd4d059	1.6626083
45	0x3f9fd06b	1.2485479
46	0x3ffbd5d5	1.9674631
47	0x3f8179d2	1.0115302
48	0x3ec85d3c	0.39133632
49	0x3e8770fd	0.2645339
50	0x40b0c62f	5.5241923
51	0x408ed6a4	4.4637012
52	0x3fbda77a	1.4816735
53	0x3fa65fd3	1.2997993
54	0x3f5ba1a6	0.8579353
55	0x3fcbdc13	1.5926536
56	0x3f8df880	1.1091461
57	0x3fda2872	1.7043593
58	0x3fa96670	1.3234386
59	0x3fbeb7ac	1.4899802
60	0x408d2654	4.4109287
61	0x3d942a67	0.0723465
62	0x3f80f202	1.0073855
63	0x3fc8f446	1.5699546
64	0x3fce05a3	1.609547
65	0x3fdbd108	1.7173166
66	0x4088d447	4.275913
67	0x3ed4733d	0.4149417
68	0x409c68e6	4.887805
69	0x3f5872aa	0.84549963
70	0x3f53f32f	0.82792944
71	0x3fa97722	1.3239481
72	0x40806a7e	4.0129995
73	0x400c13ee	2.1887164
74	0x3f83dffa	1.0302727
75	0x40819fce	4.0507574
76	0x3f454c74	0.77069783
77	0x409b4463	4.852098
78	0x408b835f	4.3597865
79	0x3f9decdb	1.2337908
80	0x3fb9d6f0	1.4518719
81	0x3f215d09	0.63032585
82	0x3e18fc62	0.14940026
83	0x3f601cda	0.87544024
84	0x3f57dbaa	0.84319556
85	0x401a06f3	2.4066741
86	0x3f895115	1.0727869
87	0x408aaeda	4.333844
88	0x3f977d13	1.1835045
89	0x3fa311a1	1.2739755
90	0x3f171d1a	0.5902878
91	0x3f48bda4	0.7841437
92	0x3fc24cf4	1.5179734
93	0x40832e3e	4.099395
94	0x3f56b69b	0.83872384
95	0x3fa33699	1.2751037
96	0x3f044a84	0.516762
97	0x3eac0258	0.33595538
98	0x402b8d31	2.6804926
99	0x40858b91	4.173287

layers.2.0.weight f4 [2, 100]
0	0xbe60be1b	-0.2194752
1	0x3e917772	0.28411442
2	0x3e454a23	0.19266562
3	0xbe0c723b	-0.1371545
4	0x3e36fcee	0.17869923
5	0xbdbe534c	-0.09293231
6	0x3e175722	0.14779332
7	0xbdbc94bc	-0.09208056
8	0x3dca7303	0.09885218
9	0x3e8a5f96	0.2702605
10	0xbda88d36	-0.08230059
11	0x3e618ed4	0.22027141
12	0xbdf2bb12	-0.11852087
13	0xbe082415	-0.13295014
14	0xbe1a6b38	-0.15079963
15	0xbde51289	-0.11185176
16	0x3e92b0ec	0.28650606
17	0x3e710efd	0.23540874
18	0x3dd05bed	0.101737835
19	0x3e7e2e1a	0.24822274
20	0xbe587c09	-0.21141066
21	0x3e3c85a9	0.18410362
22	0xbe20391f	-0.1564679
23	0xbe4f3ebb	-0.20238774
24	0xbe0dcdc4	-0.13848025
25	0x3e485765	0.19564588
26	0x3e327076	0.17425713
27	0xbe66e82f	-0.22549509
28	0xbe267b1f	-0.16257904
29	0x3e157a2b	0.14597385
30	0xbd52a669	-0.051428232
31	0xbe39ee8a	-0.18157402
32	0x3e996403	0.29959115
33	0x3e95f2ae	0.29286712
34	0x3d595c78	0.0530667
35	0xbe2bd98f	-0.16782211
36	0xbe26b5de	-0.16280314
37	0x3e2109a8	0.1572634
38	0x3e19d6f5	0.15023406
39	0xbe16c64e	-0.14724085
40	0xbe21b4ae	-0.1579158
41	0x3e8dca72	0.27693516
42	0xbd4a83db	-0.049442153
43	0x3e30b218	0.17255437
44	0x3daeaa2d	0.08528552
45	0xbd7ebc2c	-0.062191173
46	0xbdb72691	-0.08942903
47	0xbe17e981	-0.14835168
48	0xbe803753	-0.2504221
49	0x3e15205d	0.14563127
50	0x3e3a1b5d	0.18174501
51	0x3e3d6e3b	0.18499081
52	0x3d02189e	0.031761758
53	0x3e20c760	0.15701056
54	0x3e0bb1d9	0.13642062
55	0x3e3a07b4	0.18167001
56	0xbe1e2663	-0.15444331
57	0x3e2d9d45	0.16954525
58	0x3d920cac	0.07131323
59	0xbdfc72ca	-0.12326582
60	0xbe046c64	-0.12931973
61	0x3e3cfa83	0.18454938
62	0xbda31760	-0.07963443
63	0x3e93cd59	0.28867605
64	0xbe21e4e1	-0.15809967
65	0x3e6be5e0	0.23036909
66	0xbe572632	-0.21010664
67	0x3e88d353	0.26723728
68	0xbdc71288	-0.097203314
69	0xbe2ebe55	-0.17064793
70	0xbd6dacc2	-0.058026083
71	0x3e5bc062	0.21460107
72	0xbdf37730	-0.118879676
73	0xbdee2b11	-0.11629308
74	0xbd9b1ca9	-0.07573826
75	0x3e21c3cc	0.15797347
76	0xbd21d210	-0.03950697
77	0xbe0ba21e	-0.13636062
78	0x3dcd1f31	0.10015715
79	0x3df2db9d	0.11858294
80	0xbde4aa48	-0.11165291
81	0x3e268b7c	0.16264147
82	0x3e3248b4	0.17410547
83	0x3e409cac	0.18809766
84	0x3d9140e7	0.07092457
85	0x3e51fadc	0.20505852
86	0x3df3f0e9	0.11911184
87	0xbe1bf32b	-0.1522948
88	0xbe275c99	-0.16343917
89	0x3e17cc3a	0.14824
90	0x3e02f1f5	0.12787612
91	0x3e388915	0.18021043
92	0xbe16b982	-0.14719203
93	0x3dfcd1de	0.123447165
94	0xbe405705	-0.18783195
95	0xbe082ce2	-0.13298371
96	0x3e3f32d5	0.18671735
97	0x3e3e923d	0.18610473
98	0xbe436861	-0.19082786
99	0x3db191a4	0.08670357
100	0x3e196660	0.14980459
101	0xbe9c3981	-0.30512622
102	0xbe79bf37	-0.24389349
103	0x3e1d495a	0.15360013
104	0xbe3fa706	-0.18716058
105	0x3e0e999f	0.1392579
106	0xbdc60c2c	-0.0967029
107	0x3e297598	0.16548765
108	0xbe39485f	-0.18094014
109	0xbead81a4	-0.3388797
110	0x3e137609	0.14400496
111	0xbe612c59	-0.21989574
112	0x3d953a0a	0.07286461
113	0x3e152869	0.14566197
114	0x3def2e6f	0.116787784
115	0x3d8ae13e	0.06781243
116	0xbe6f5a52	-0.23374298
117	0xbe7a4e8c	-0.24444026
118	0xbe0dcb10	-0.13846993
119	0xbe162f73	-0.14666538
120	0x3e492fb0	0.19647098
121	0xbe82e82a	-0.25567752
122	0x3deb66e8	0.11494237
123	0x3d2e0810	0.042488158
124	0x3e640f24	0.222714
125	0xbe20c19e	-0.15698859
126	0xbe221c6c	-0.15831155
127	0x3e067dd8	0.13133943
128	0x3b22f098	0.0024862643
129	0xbdc5a59b	-0.09650727
130	0x3e2efcec	0.1708867
131	0x3d82ddd2	0.06389965
132	0xbe3fd679	-0.18734159
133	0xbe6cc1d4	-0.23120815
134	0xbe266c28	-0.16252196
135	0x3da6b431	0.081398375
136	0x3e29cf71	0.16583039
137	0xbddce161	-0.10785175
138	0xbd5769a7	-0.052590992
139	0x3e21d611	0.15804316
140	0x3d490ebd	0.04908632
141	0xbe9981b9	-0.29981783
142	0x3e2476fd	0.16061015
143	0xbe8d4969	-0.2759507
144	0xbdf63472	-0.12021722
145	0x3e3e3190	0.18573594
146	0x3e37a9b9	0.17935838
147	0x3dde24da	0.10846873
148	0x3dd3c32e	0.10339962
149	0xbe82df22	-0.25560862
150	0xbde9d043	-0.11416676
151	0xbd6b0aeb	-0.05738346
152	0xbdfdba3b	-0.12389036
153	0xbdf0f1c6	-0.117648646
154	0xbe445601	-0.19173433
155	0xbdea3566	-0.11435966
156	0x3e2313c1	0.15925504
157	0xbe36d61f	-0.17855118
158	0xbe35ae95	-0.17742379
159	0x3df38ff1	0.11892689
160	0x3e141dcf	0.14464496
161	0xbea36b70	-0.31917906
162	0x3e123d4f	0.142812
163	0xbe57e169	-0.21082081
164	0xbb029599	-0.0019925593
165	0xbe6e49ab	-0.2327029
166	0x3e061833	0.13095169
167	0xbe906d4c	-0.28208387
168	0x3e0b97a7	0.1363207
169	0x3e3f18fc	0.18661875
170	0x3e3faf26	0.18719158
171	0xbe649544	-0.22322565
172	0x3df54f49	0.11978013
173	0x3e04fe27	0.12987576
174	0x3d9f9c43	0.077934764
175	0xbdc77644	-0.09739354
176	0x3e069478	0.13142574
177	0x3e07888d	0.13235684
178	0xbda7667b	-0.081738435
179	0xbdc369e8	-0.095416844
180	0x3d83e7ba	0.06440683
181	0xbe19b88c	-0.15011805
182	0xbe94d5d3	-0.29069385
183	0xbdc15518	-0.094400585
184	0xbe2ab370	-0.16670012
185	0xbd96094f	-0.07325994
186	0xbe264d1a	-0.1624035
187	0x3dec126c	0.11526951
188	0x3e25f454	0.16206485
189	0xbe1f49f3	-0.15555553
190	0xbe0acf08	-0.13555539
191	0xbda17139	-0.07882924
192	0x3d077cc8	0.033077985
193	0xbdb788b7	-0.08961623
194	0x3de673ee	0.112525806
195	0x3e1ee731	0.1551788
196	0xbe4c428f	-0.19947265
197	0xbe648565	-0.22316511
198	0x3e105da1	0.14098217
199	0xbe1598b5	-0.14609034

layers.2.0.bias f4 [2]
0	0x3e6edcd4	0.23326427
1	0xbe1e3627	-0.15450345

grad_avg f4 [49]
0	0xb8647441	-5.4467706e-05
1	0xb8c05e99	-9.1728936e-05
2	0xb8b3f4ae	-8.58096e-05
3	0x363bc20d	2.7978124e-06
4	0x3661fa6b	3.3673375e-06
5	0x3810b61e	3.4501885e-05
6	0x3811b200	3.473647e-05
7	0xb83cfcc5	-4.5058103e-05
8	0xba016ac2	-0.00049368676
9	0xb9d8ff27	-0.00041388834
10	0x399d4dc5	0.00030003316
11	0x39217c30	0.0001540042
12	0x38469dde	4.7353904e-05
13	0x379ec63d	1.892738e-05
14	0xb8b92e8b	-8.830157e-05
15	0xb95e8c81	-0.00021223912
16	0x39e64182	0.00043917826
17	0x37edae89	2.8333876e-05
18	0x3905b5dc	0.00012751616
19	0x37a2b67b	1.9396879e-05
20	0x3a163c7e	0.000573106
21	0x38a5c62b	7.904725e-05
22	0x38e630b2	0.00010976325
23	0x38f7ed7e	0.00011822114
24	0x37dfad33	2.6664324e-05
25	0x381729bd	3.6040077e-05
26	0xb7ad3c42	-2.0651267e-05
27	0x38e4989a	0.000109003115
28	0x38239f5f	3.9010654e-05
29	0x38c3acb4	9.330493e-05
30	0xb9170836	-0.00014403541
31	0xb8fd7447	-0.000120856384
32	0xb74b9b30	-1.2135875e-05
33	0x395013bb	0.00019843776
34	0x38d4d1f6	0.00010148056
35	0xb8b0c027	-8.428125e-05
36	0xb92ba88a	-0.00016370617
37	0xb908a618	-0.00013031845
38	0xb8fb0066	-0.00011968687
39	0xb907858f	-0.00012924358
40	0xb7a5435c	-1.97009e-05
41	0xb98fb497	-0.00027409635
42	0xb90ba654	-0.00013318035
43	0xb8290acf	-4.0302806e-05
44	0x38bcb0d5	8.997476e-05
45	0x3972508c	0.00023108925
46	0x38a7da0e	8.0037964e-05
47	0xb5981d29	-1.1333369e-06
48	0xb93fef85	-0.00018304407

sqr_avg f4 [49]
0	0x342013db	1.4908385e-07
1	0x362fae6d	2.6178561e-06
2	0x36238691	2.436722e-06
3	0x34549506	1.9798253e-07
4	0x3465dd5b	2.1407816e-07
5	0x34bfb5dd	3.5708845e-07
6	0x333a9f80	4.3451564e-08
7	0x358daefb	1.0556245e-06
8	0x36b79663	5.4713323e-06
9	0x36a0ed92	4.7960284e-06
10	0x36b62506	5.4283328e-06
11	0x34878cea	2.5248238e-07
12	0x33b9b37d	8.6473825e-08
13	0x3495facf	2.79359e-07
14	0x358e03b1	1.0580899e-06
15	0x36112dda	2.1633373e-06
16	0x36903258	4.297395e-06
17	0x329c4843	1.8193651e-08
18	0x34b944b3	3.450892e-07
19	0x3578552d	9.2511146e-07
20	0x3745555b	1.1761988e-05
21	0x33f77c0b	1.1524397e-07
22	0x35825a3f	9.71202e-07
23	0x35b01f9a	1.3122219e-06
24	0x35de26d2	1.6551587e-06
25	0x33ac7c03	8.031932e-08
26	0x352f0871	6.5204864e-07
27	0x35e8c954	1.7343941e-06
28	0x35304016	6.5658367e-07
29	0x36051083	1.9828155e-06
30	0x34ec4a07	4.4012288e-07
31	0x350cfc8b	5.252156e-07
32	0x34885dd6	2.540025e-07
33	0x364db671	3.0653575e-06
34	0x3582ed46	9.75481e-07
35	0x35192eeb	5.7065216e-07
36	0x3685e707	3.990604e-06
37	0x35511b25	7.789807e-07
38	0x36072d10	2.0142797e-06
39	0x34be2e79	3.542407e-07
40	0x351b6449	5.7887934e-07
41	0x35d070ed	1.5530073e-06
42	0x35b82f01	1.3722748e-06
43	0x3598c65d	1.1382614e-06
44	0x33b1edc8	8.285457e-08
45	0x3616103a	2.2361187e-06
46	0x36aa7f6b	5.081228e-06
47	0x35c9f878	1.5047981e-06
48	0x35204836	5.9709726e-07

grad_avg f4 [49]
0	0x384e62a6	4.92061e-05
1	0xba033bf0	-0.0005006185
2	0xb8ef5feb	-0.00011414274
3	0x388d395f	6.73409e-05
4	0xb8227f40	-3.874232e-05
5	0xb8e4e041	-0.00010913658
6	0xb8ce0f66	-9.825714e-05
7	0x394d6776	0.00019588866
8	0xb93dca5a	-0.00018099826
9	0xb9807bf2	-0.0002450641
10	0xba2662cb	-0.0006347119
11	0xb9a987f2	-0.0003233548
12	0xb8331e1c	-4.2704967e-05
13	0xb94330c0	-0.0001861481
14	0x38e162b4	0.00010747221
15	0x39f6b607	0.00047056397
16	0x39437132	0.00018638818
17	0x3864843f	5.44826e-05
18	0x3882b42f	6.232445e-05
19	0x394556b1	0.00018819679
20	0xb9818206	-0.00024701672
21	0xb70cb4a8	-8.386713e-06
22	0xb92f926b	-0.00016743845
23	0x3980190b	0.0002443272
24	0xb65aaba6	-3.2584444e-06
25	0x382a2e93	4.0574534e-05
26	0xb8ad062a	-8.250431e-05
27	0xb8fe6d99	-0.00012132078
28	0x390ae512	0.00013246041
29	0xb826cfca	-3.9771003e-05
30	0xb800e0fe	-3.072712e-05
31	0xb8eb65b6	-0.00011224618
32	0xb95f7b1b	-0.00021312798
33	0x38996aec	7.315524e-05
34	0xb96dde9d	-0.00022685011
35	0xb81ec496	-3.785322e-05
36	0x3943dca4	0.00018678844
37	0x3949c864	0.00019243505
38	0x39aa3879	0.00032467002
39	0xb895e8cc	-7.1482355e-05
40	0xb99888d0	-0.00029093632
41	0xb98ef05c	-0.00027263432
42	0x38d02c6a	9.926486e-05
43	0x38396711	4.4203425e-05
44	0xb9646ed0	-0.00021785055
45	0x392b7df8	0.00016354758
46	0x391199f9	0.00013885637
47	0xb98452f3	-0.00025238804
48	0xb8505b3d	-4.9676037e-05

sqr_avg f4 [49]
0	0x3526ec02	6.2183256e-07
1	0x3751c398	1.2502911e-05
2	0x35ac4e6a	1.283782e-06
3	0x359d599a	1.1723489e-06
4	0x358c5786	1.0456286e-06
5	0x34c55b28	3.6760434e-07
6	0x358d53d3	1.0529715e-06
7	0x3561399c	8.3902864e-07
8	0x35801707	9.543445e-07
9	0x35b020e2	1.3122592e-06
10	0x376630ba	1.3720413e-05
11	0x35f32649	1.8116053e-06
12	0x361b8335	2.3173172e-06
13	0x3534af39	6.731021e-07
14	0x354652f8	7.3881483e-07
15	0x36169c3a	2.2442678e-06
16	0x36875a7b	4.033847e-06
17	0x3516a6d3	5.6122116e-07
18	0x34dab03b	4.073389e-07
19	0x358cf4df	1.050208e-06
20	0x3616ddf6	2.248094e-06
21	0x35617ebc	8.4003455e-07
22	0x3605f6cc	1.99622e-06
23	0x357bcb51	9.380065e-07
24	0x358748ec	1.0079507e-06
25	0x3586b57f	1.00366e-06
26	0x35844dfc	9.857463e-07
27	0x3519f94f	5.7359733e-07
28	0x34c50e26	3.6704404e-07
29	0x3608dbd2	2.0393531e-06
30	0x35c862ad	1.492988e-06
31	0x35004a42	4.7791775e-07
32	0x35735243	9.064426e-07
33	0x35ec69f4	1.7614207e-06
34	0x3692a832	4.3707196e-06
35	0x3513c7df	5.505262e-07
36	0x36683564	3.4601771e-06
37	0x35c8af22	1.4952132e-06
38	0x35a1daa8	1.2059072e-06
39	0x3593aa14	1.1001853e-06
40	0x3602382f	1.9404213e-06
41	0x3592b112	1.0929382e-06
42	0x35814df0	9.633932e-07
43	0x352b12a2	6.372958e-07
44	0x354fa88c	7.735878e-07
45	0x367a2d80	3.7279387e-06
46	0x355ba218	8.1819735e-07
47	0x35f89ef7	1.8523705e-06
48	0x356903d6	8.6804846e-07
