source/models/mlp_pytorch_ga_usnw-nb15.pth (torch, 168754 bytes, 5 tensors)

layers.0.weight f4 [186, 34]
0	0x3f4e0e56	0.80490625
1	0x3f08304a	0.53198683
2	0x3ca692f6	0.020333748
3	0xbe935b05	-0.2878038
4	0x3ef1507b	0.47131714
5	0x3f603026	0.8757347
6	0x3dccdb3c	0.10002753
7	0x3f3b1b73	0.7308876
8	0x3e3e4e9e	0.18584678
9	0xc0070ece	-2.1102786
10	0xbfbb5b4a	-1.4637234
11	0xbe2d63d8	-0.16932619
12	0x3e7be65c	0.24599594
13	0x3f6e2485	0.93024474
14	0x3e921253	0.28529605
15	0xbde992fc	-0.11404988
16	0xbde90e1d	-0.11379645
17	0x3de28e55	0.11062304
18	0x3fce2006	1.6103523
19	0x3dc8a1ab	0.09796461
20	0xbec97dc1	-0.39353755
21	0xbdc02de0	-0.0938375
22	0x3f693ef2	0.9111167
23	0xbe6e3dfb	-0.23265831
24	0xbee24885	-0.44195953
25	0xbf48950f	-0.78352445
26	0xbf884f0a	-1.0649121
27	0xbda099a4	-0.078418046
28	0xbe64ba6b	-0.22336738
29	0x3b19ff26	0.0023498028
30	0x3f297b70	0.66203976
31	0xbeb39572	-0.35074955
32	0x3dca9b6c	0.098929256
33	0xbf26f3e6	-0.6521591
34	0x3ebd6bf1	0.36996415
35	0x3eeff283	0.4686471
36	0xbdc883df	-0.097907774
37	0xbfb78d35	-1.4339968
38	0x3e4ed8c1	0.20199873
39	0x3ea9181b	0.33026204
40	0x3d742f94	0.059615687
41	0x3daeab88	0.08528811
42	0x3e013f8b	0.12621896
43	0xc01219f7	-2.2828348
44	0xbffad23c	-1.9595408
45	0xbe1969a8	-0.14981711
46	0x3d788a14	0.060678557
47	0x3d7fce20	0.062452435
48	0x3e813849	0.25238255
49	0xbf3d315d	-0.7390345
50	0xbf5d3e72	-0.8642341
51	0xbde4e024	-0.11175564
52	0x3f8a2145	1.0791403
53	0xbe0ed2b9	-0.13947572
54	0xbd5dd92a	-0.054162182
55	0xbe938275	-0.28810468
56	0x3ea148eb	0.31500944
57	0xbe4c3266	-0.199411
58	0xbfb5c6c1	-1.420128
59	0xbf1da56c	-0.6158054
60	0xbed1c389	-0.40969494
61	0xbda008e3	-0.07814195
62	0x3dd72aa7	0.10506182
63	0xbd073dd6	-0.033017956
64	0x3e978cec	0.29599702
65	0xbf94c9aa	-1.1624043
66	0x3d14ccde	0.03632819
67	0xbfb193ee	-1.387327
68	0xc04eb6cd	-3.2299073
69	0xc02894d5	-2.634084
70	0xc04f32fe	-3.2374873
71	0xc08696aa	-4.2058916
72	0xbef67fa3	-0.48144254
73	0xc0c0730b	-6.0140433
74	0xc04ec6fa	-3.2308946
75	0xc0c23bbb	-6.0697913
76	0x3fba5b26	1.4559066
77	0xc00f73ad	-2.2414353
78	0xc0a38c31	-5.110863
79	0x4038c030	2.8867302
80	0xbfeefea6	-1.8671463
81	0x3ee16160	0.44019604
82	0x3fb80f58	1.4379683
83	0xc083aa2c	-4.114523
84	0xc083fbb2	-4.1244745
85	0x3f0cdf8c	0.55028605
86	0x40591a22	3.39222
87	0x3f385ab2	0.7201339
88	0xc01727a0	-2.3617935
89	0xc0539667	-3.3060548
90	0xbde1d8bd	-0.11027668
91	0xbfcc7176	-1.5972126
92	0xc08d1b4c	-4.409582
93	0xc0685ba2	-3.6305928
94	0xc02e3e48	-2.7225513
95	0xbf929f15	-1.1454798
96	0xc0277f39	-2.61714
97	0x3fb90a31	1.4456235
98	0x3ee6bee2	0.45067507
99	0xc083b9ce	-4.116431
100	0x3fb50ea2	1.414509
101	0xc0883402	-4.2563486
102	0x3e3c0e21	0.18364765
103	0x3f94f388	1.163682
104	0xbdd095bc	-0.101848096
105	0xbfa4106b	-1.281751
106	0x3e6bd930	0.23032069
107	0x3fee7cb6	1.8631809
108	0x3e185064	0.14874417
109	0x4004ab82	2.072968
110	0x3eb48825	0.3526012
111	0xc0125fff	-2.2871091
112	0xc02fe264	-2.7481928
113	0xbe9bb7ce	-0.3041367
114	0x3db730cb	0.089448534
115	0x3e796f46	0.24358854
116	0x3eb4957b	0.35270295
117	0xbfc2b71a	-1.5212128
118	0xbfc5818b	-1.5430158
119	0xbd91c585	-0.07117752
120	0x3e8a0907	0.26960012
121	0xbe4d2c94	-0.20036536
122	0xbd8b5c80	-0.06804752
123	0xbf8f7b5f	-1.1209525
124	0xbe828a6f	-0.2549624
125	0x3d9e4464	0.07727888
126	0xbf8281b0	-1.0195827
127	0xbf9f2404	-1.2432866
128	0xbf9fd96b	-1.2488226
129	0x3ea08e92	0.31358773
130	0xbfd7d083	-1.6860508
131	0xbe73eacd	-0.23820038
132	0x3e03e32a	0.12879625
133	0xbfafee44	-1.3744588
134	0xbe87028a	-0.26369125
135	0xbffcd791	-1.9753286
136	0xc05da15a	-3.462973
137	0xc01dc1ab	-2.4649456
138	0xbfe03e12	-1.7518942
139	0xbf981007	-1.1879891
140	0xbfc584d2	-1.5431159
141	0xc0435d8a	-3.0525842
142	0xbff39bac	-1.9031882
143	0xc03ddc69	-2.9665778
144	0xbf9d37ba	-1.2282631
145	0xbf27bcb5	-0.6552232
146	0x3d1913e1	0.037372474
147	0xbf165969	-0.5873018
148	0xc00054b5	-2.00517
149	0xc01c1b78	-2.4391766
150	0xbf799fd2	-0.9750949
151	0xbf2dfa22	-0.679598
152	0xbf3698a4	-0.7132666
153	0x3b3e9539	0.0029080643
154	0x3f239ac9	0.6390806
155	0xbf1fa7d4	-0.6236546
156	0xbf208656	-0.6270498
157	0xbfb486e9	-1.4103671
158	0xbf1222cc	-0.57084346
159	0x3d526793	0.051368307
160	0xbfa64f7c	-1.2993007
161	0x3fe4f35c	1.7886767
162	0x3eb8721a	0.36024553
163	0xc05f500b	-3.4892604
164	0xbd9e2e96	-0.07723729
165	0xbf96a318	-1.1768522
166	0xbff08140	-1.8789444
167	0xbf6de85c	-0.9293268
168	0xbe82674a	-0.25469428
169	0xbe428920	-0.18997622
170	0x3d5affc9	0.053466592
171	0x3f0caa5a	0.54947436
172	0xbe9ced8f	-0.30649993
173	0xbf6fcf01	-0.9367524
174	0xbdce8191	-0.100833066
175	0x3fab7dbe	1.3397748
176	0xbc82e391	-0.015977653
177	0x3fbc6a8a	1.4720013
178	0x3d1bc069	0.038025293
179	0xbfcf8f36	-1.621558
180	0xbfccc6df	-1.5998191
181	0xbe20aa28	-0.1568991
182	0x3e144b5d	0.14481874
183	0x3dd9812a	0.10620339
184	0xbd649f55	-0.055816013
185	0xbf87ea17	-1.0618314
186	0xbf64652d	-0.8921688
187	0x3e15d803	0.14633183
188	0xbe59a6db	-0.21255057
189	0xbccd2576	-0.025042277
190	0xbd072681	-0.032995705
191	0xbf345908	-0.7044835
192	0xbe154966	-0.1457878
193	0xbdf1a90a	-0.1179982
194	0xbf871127	-1.055211
195	0xbfae3a03	-1.3611454
196	0xbe3f6e5f	-0.18694447
197	0x3d900bf8	0.07033533
198	0xbf944f97	-1.1586789
199	0xbe2c9ae2	-0.16855958
200	0x3d5247d2	0.051338024
201	0xbf5a4eb6	-0.85276353
202	0x3e126e0b	0.1429979
203	0xbf65c77a	-0.897575
204	0x3ec26ef7	0.37975284
205	0x3d8ce951	0.06880439
206	0xbd9fbf40	-0.0780015
207	0xbe1419cf	-0.1446297
208	0x3f10b8e0	0.56532097
209	0x3f06d7c8	0.52673006
210	0x3d963966	0.07335167
211	0x3edf15b1	0.43571237
212	0x3eec6703	0.46172342
213	0xbf8b9117	-1.0903653
214	0xbf08f8fb	-0.53504914
215	0x3e61be60	0.22045279
216	0xc0284ade	-2.6295695
217	0x3f5972f2	0.8494102
218	0x3eecd594	0.46256697
219	0x3da008a9	0.07814152
220	0xbe57a130	-0.21057582
221	0xbe09b31a	-0.13447228
222	0x3f96b251	1.1773168
223	0xba8ba2ea	-0.001065341
224	0x3ea5f04d	0.32409897
225	0x3d47f191	0.04881436
226	0xbf694b58	-0.9113059
227	0x3f318eb3	0.69358367
228	0xbe341dec	-0.1758954
229	0x3d5c2f31	0.053755943
230	0x3eb3dd2c	0.35129678
231	0xc0124e08	-2.2860126
232	0xbf1bc203	-0.60842913
233	0xbd8b8759	-0.06812925
234	0x3efe857c	0.49711215
235	0xbe97747b	-0.29581055
236	0x3e46ecae	0.19426224
237	0xbf175d95	-0.5912717
238	0xbdb27d86	-0.08715348
239	0x3d1ae39b	0.037814718
240	0xbde37f7f	-0.11108302
241	0xbe48e173	-0.19617252
242	0xbe6a016a	-0.22852102
243	0xbe53c0a4	-0.20678955
244	0xbc9d2d93	-0.01918677
245	0xbde3103e	-0.11087082
246	0x3d97098b	0.07374867
247	0xbf5c183c	-0.8597448
248	0xbe4c6558	-0.19960535
249	0xbe1a0a73	-0.15043049
250	0x3df39454	0.11893526
251	0x3d08061a	0.033208944
252	0xbdc036b6	-0.09385435
253	0xbcd051f7	-0.025429709
254	0xbce8ad9f	-0.028403101
255	0xbdfa6f3a	-0.12228246

layers.0.bias f4 [186]
0	0xbe7c1a7b	-0.24619476
1	0xbd8e0ad3	-0.06935658
2	0x3e1d0dbc	0.1533727
3	0xbd2c9a02	-0.04213906
4	0x3ee13fce	0.43993992
5	0xbdd44e72	-0.10366525
6	0xbef7846b	-0.48343214
7	0xbd8a27f8	-0.06745905
8	0xbda70ad2	-0.08156361
9	0xbe2844f7	-0.16432558
10	0xbe20d24d	-0.15705223
11	0xbdb96826	-0.09053068
12	0xbd9e639b	-0.07733842
13	0xbcee1d8d	-0.029066825
14	0xbeb5078a	-0.35357314
15	0xbdf1808c	-0.117920965
16	0xbe345694	-0.17611152
17	0xbdfe8116	-0.12426965
18	0xbe6a75b4	-0.22896463
19	0x3ea6b54e	0.325602
20	0xbeb5138c	-0.35366476
21	0xbea1da1f	-0.31611726
22	0x3d98d5d8	0.074626625
23	0xbe3bfc5b	-0.18357985
24	0xbe7f2915	-0.24918015
25	0xbe1321a0	-0.14368296
26	0xbebd3305	-0.36952987
27	0xbe610d6f	-0.21977781
28	0xbddbaf15	-0.107267536
29	0xbe7b7321	-0.24555637
30	0xbc94d745	-0.018169055
31	0xbe2be4c9	-0.16786493
32	0xbc9e6a37	-0.019337757
33	0xbe60545e	-0.21907184
34	0xbd71d80e	-0.059043936
35	0xbe44f936	-0.19235691
36	0xbe1c20df	-0.15246914
37	0xbf1e9785	-0.6194995
38	0xbd908308	-0.07056242
39	0xbe871c61	-0.2638884
40	0x3e9bc7bd	0.30425826
41	0xbe1c969c	-0.15291828
42	0x3e0dd79d	0.13851781
43	0xbd0bc1e7	-0.034120467
44	0xbed474b9	-0.41495302
45	0xbec59fe8	-0.3859856
46	0x3e65bcb7	0.2243527
47	0xbe0eea87	-0.13956653
48	0xbd342c19	-0.043987367
49	0xbe87a827	-0.26495478
50	0xbf0c70fd	-0.54859906
51	0xbd7b16ef	-0.061301168
52	0xbe407485	-0.18794449
53	0x3edef708	0.43547845
54	0xbe1215ed	-0.14266177
55	0xbdb279b4	-0.08714619
56	0xbe4f7793	-0.20260458
57	0x3e29dfc1	0.16589262
58	0xbead9327	-0.3390133
59	0xbea9e7a4	-0.3318454
60	0xbe8f1040	-0.27942085
61	0x3df185ec	0.11793122
62	0xbd7230bc	-0.059128508
63	0xbd1c8ca7	-0.038220074
64	0xbe52f95a	-0.20602933
65	0x3ebd360f	0.36955306
66	0xbf1085ad	-0.56453973
67	0xbd5d1966	-0.0539793
68	0x3d24bff4	0.040222123
69	0xbd653859	-0.05596194
70	0xbde60cd8	-0.112329185
71	0xbe47c65d	-0.19509263
72	0x3da0f187	0.07858568
73	0xbe6db76c	-0.23214501
74	0xbe93b320	-0.288476
75	0xbd4f3a83	-0.05059291
76	0xbe460863	-0.19339137
77	0xbe5570fa	-0.20843878
78	0x3a135cd5	0.0005621438
79	0xbebfe988	-0.37482858
80	0xbe25f554	-0.16206867
81	0x3e90c442	0.28274733
82	0x3dbc858e	0.09205161
83	0xbe280dfc	-0.16411585
84	0xbe4f817e	-0.20264241
85	0xbd9c9464	-0.07645491
86	0xbe8a1685	-0.26970306
87	0xbe2bf9f6	-0.16794571
88	0xbe80ec73	-0.25180396
89	0xbf02720a	-0.5095526
90	0xbf085cd7	-0.5326666
91	0xbe25d00f	-0.1619265
92	0xbe3a0d9d	-0.18169256
93	0xbe37cca7	-0.17949162
94	0xbe5bdb56	-0.21470389
95	0xbd6ee746	-0.05832603
96	0xbea4588e	-0.32098812
97	0xbe20bd25	-0.15697153
98	0xbe907e83	-0.2822152
99	0xbe8f00a5	-0.2793018
100	0xbceb4dcb	-0.028723618
101	0x3e9cfefa	0.30663282
102	0xbe72ef7a	-0.23724166
103	0xbe62b0c1	-0.22137739
104	0xbe51eb20	-0.2049985
105	0x3ccb57f9	0.024822222
106	0xbeaef39e	-0.3417024
107	0xbe1ed90b	-0.15512483
108	0xbd85172e	-0.06498562
109	0xbe34e996	-0.17667231
110	0xbd3699c3	-0.044580232
111	0xbe82bd11	-0.2553487
112	0xbe8ff794	-0.28118575
113	0xbd1983fe	-0.037479393
114	0xbdc3538f	-0.09537422
115	0xbeb1dc48	-0.34738374
116	0xbdead365	-0.114661016
117	0xbec603b7	-0.3867471
118	0xbefb7289	-0.4911082
119	0x3e56b29d	0.20966573
120	0xbe362794	-0.17788535
121	0xbd099dc3	-0.03359772
122	0xbebc5ebe	-0.36791033
123	0xbe1dacbc	-0.15397924
124	0xbdf4e90b	-0.11958512
125	0xbd989f33	-0.0745224
126	0xbe2a8cc4	-0.1665526
127	0xbe0f3606	-0.13985452
128	0xbe22fd52	-0.15916947
129	0xbde305a6	-0.11085062
130	0xbe7a7698	-0.24459302
131	0xbe9d41ec	-0.30714357
132	0xbede8565	-0.43461147
133	0xbe993e94	-0.29930556
134	0xbd5e736e	-0.0543093
135	0xbec85304	-0.39125836
136	0xbea4ca41	-0.32185557
137	0xbdc5062d	-0.096203186
138	0xbe08a0ad	-0.13342543
139	0xbe1031b9	-0.14081468
140	0xbe16a3b3	-0.14710884
141	0x3d8d73be	0.06906842
142	0xbf17b37a	-0.59258235
143	0xbe0241de	-0.12720439
144	0xbe07d598	-0.13265073
145	0xbeb643ae	-0.3559851
146	0xbd0dbe26	-0.034605168
147	0x3e0a03fc	0.13478082
148	0xbe6a5ea2	-0.22887662
149	0xbc89077b	-0.0167272
150	0xbe0590f7	-0.13043581
151	0xbe8a2884	-0.26984036
152	0xbe8de2b7	-0.27712032
153	0xbeca988a	-0.39569503
154	0xbe6b8e6c	-0.23003548
155	0xbcda3283	-0.026635414
156	0xbe2a6c19	-0.16642798
157	0xbe98ee8f	-0.29869506
158	0xbd3bb05d	-0.04582249
159	0xbd997647	-0.07493263
160	0x3e535eaa	0.2064158
161	0xbd2d4200	-0.04229927
162	0xbe94a837	-0.29034588
163	0xbe545ead	-0.20739241
164	0x3dcb97e9	0.09941084
165	0xbea83209	-0.32850674
166	0xbd7f7af8	-0.06237313
167	0xbce558f0	-0.02799651
168	0xbead84d3	-0.338904
169	0x3d923e5e	0.07140802
170	0xbda306da	-0.07960291
171	0xbdf63020	-0.12020898
172	0xbe4fccdb	-0.2029299
173	0xbe371ed4	-0.17882854
174	0xbe12563b	-0.14290707
175	0xbe490c35	-0.19633563
176	0x3e14e4ea	0.14540449
177	0xbd8dc25b	-0.06921836
178	0xbd90d657	-0.07072132
179	0xbe778202	-0.24170688
180	0x3d86faec	0.06590828
181	0xbe085703	-0.13314442
182	0xbe4b0eab	-0.19829814
183	0xbe28a60a	-0.16469589
184	0x3d4ee463	0.050510775
185	0xbe355635	-0.17708667

layers.1.weight f4 [186, 186]
0	0xbd709f25	-0.058745522
1	0x3d51e690	0.051245272
2	0xbd59b8c4	-0.05315472
3	0xbd3699a5	-0.04458012
4	0x3d444571	0.047917787
5	0xbd039167	-0.03212109
6	0xbdcc03ec	-0.099616855
7	0xbcdd9c4c	-0.027052067
8	0xbd9386c9	-0.072034426
9	0x3c9a7dd4	0.018858828
10	0xbde94677	-0.11390393
11	0xbdb464d1	-0.08808292
12	0xbdc7404c	-0.097290605
13	0x3c92fe8c	0.017943643
14	0x3c75d97e	0.015005467
15	0xbc90e71a	-0.017688323
16	0xbde19977	-0.11015599
17	0xbc660c58	-0.014041029
18	0x3c8eae0c	0.017416976
19	0x3b858f5e	0.0040759286
20	0x3d38d690	0.045126498
21	0x3af31604	0.001854599
22	0xbd2cd58a	-0.042195834
23	0x3d20a019	0.03921518
24	0x3bdc2b4e	0.0067190295
25	0x3bbe114d	0.0058004023
26	0xbdadbbe7	-0.08483105
27	0xbd4708f3	-0.04859252
28	0x3cba2d95	0.022726813
29	0x3cbab011	0.022789033
30	0xbd90c19c	-0.07068178
31	0x3caf7518	0.02141814
32	0x3cfed3e0	0.03110689
33	0xbd915929	-0.07097084
34	0x3cf0d070	0.029396266
35	0x3cf862b7	0.030320508
36	0xbd5703ae	-0.052493744
37	0x3a1db1a3	0.00060155446
38	0xbda75f5c	-0.08172485
39	0xbd8bff9c	-0.06835863
40	0x3c85e8f1	0.016346427
41	0xbccd9a8a	-0.025098104
42	0xbdbbaf36	-0.09164278
43	0xbd924945	-0.07142881
44	0xbb975221	-0.004617945
45	0xbd2d8633	-0.04236431
46	0x3d919beb	0.07109817
47	0xbe054266	-0.1301361
48	0xbe13a228	-0.14417326
49	0xbd7b7b27	-0.061396744
50	0xbd50d573	-0.05098481
51	0xbd82f07a	-0.063935235
52	0xbd876bf5	-0.06612388
53	0x3c8c2b25	0.017110417
54	0x3c9b1d88	0.01893498
55	0x3d46f7e5	0.048576254
56	0xbdaf75af	-0.08567368
57	0x3c312f17	0.01081445
58	0xbd5fa8d5	-0.05460437
59	0xbc4ccddc	-0.012500253
60	0xbb84ac91	-0.004048892
61	0xbd8b0125	-0.06787328
62	0xbd48ac28	-0.048992306
63	0x3b17f89c	0.0023188954
64	0x3c16b77a	0.009199018
65	0xbdb76d4e	-0.08956395
66	0xbd8e3b83	-0.06944945
67	0xbddb6798	-0.10713118
68	0x3d577809	0.05260471
69	0xbd08c818	-0.03339395
70	0x3c10153b	0.008794124
71	0xbd365445	-0.04451396
72	0xbe1771af	-0.1478946
73	0xbdaff3c7	-0.08591419
74	0xbcb2c515	-0.021822492
75	0x3cb72ea3	0.022361105
76	0xbd755ae9	-0.05990115
77	0xbd9df584	-0.07712844
78	0xbcaaed24	-0.02086503
79	0xbe12d68e	-0.14339659
80	0xbe20601f	-0.15661667
81	0xbc9fc70f	-0.019504098
82	0xbc26a7e7	-0.010171867
83	0x3d182fe9	0.037155066
84	0x3d3b104a	0.04566983
85	0xbb8ced2b	-0.0043007336
86	0xbbe5f221	-0.0070173894
87	0x3d144c4a	0.036205567
88	0xbd1fca86	-0.0390115
89	0xbd3321b3	-0.04373331
90	0xbd6fb17b	-0.058518868
91	0x3d1a22f6	0.037630998
92	0xbd84a1c0	-0.06476164
93	0xbbbaecb6	-0.0057044877
94	0x3b1ed667	0.002423668
95	0x3d146f59	0.036239002
96	0x3b96b66e	0.004599384
97	0xbbb4d828	-0.005518932
98	0xbdc98b52	-0.09841026
99	0x3c67a8ad	0.0141393365
100	0xbd2a9a40	-0.04165101
101	0xbd1ae0d4	-0.03781207
102	0xbd5b2521	-0.053502206
103	0x3c5c4b90	0.01344575
104	0xbd9e2417	-0.07721727
105	0xbba0a532	-0.0049025053
106	0xbd9ed190	-0.077548146
107	0xbd3bcdd8	-0.045850605
108	0xbdaf9a11	-0.08574308
109	0x3d27ae8f	0.040937956
110	0xbbf9255e	-0.0076033315
111	0xbd56100a	-0.05226139
112	0xbde5641e	-0.112007365
113	0x3d3c99d8	0.046045154
114	0x3c932160	0.01796025
115	0xbd8e07df	-0.06935095
116	0xbc8f6bd6	-0.017507475
117	0xbd800d4f	-0.062525384
118	0xbdcdaa09	-0.10042197
119	0x3d2ea96a	0.042642035
120	0x3c3c1d5f	0.011481612
121	0xbbc61eb2	-0.0060461396
122	0xbda9e81f	-0.08296227
123	0xbcaff284	-0.021477945
124	0x3d0fbe1a	0.035093404
125	0x3caf8054	0.021423496
126	0xbcda13dc	-0.026620798
127	0x3cd120ca	0.02552833
128	0xbd922840	-0.07136583
129	0xbdb0d665	-0.086346425
130	0xbc1fe198	-0.009758376
131	0xbe30737c	-0.17231554
132	0x3d6b2418	0.05740747
133	0x3d6fef20	0.058577657
134	0xbca68199	-0.020325469
135	0x3cdad209	0.02671148
136	0xbc9f60a9	-0.01945527
137	0xbcf453d5	-0.02982513
138	0xbd899459	-0.06717748
139	0x3d517198	0.051133722
140	0x3c2717ee	0.010198576
141	0xbe03b7ef	-0.12863134
142	0x3c76c17b	0.015060778
143	0x3d44124c	0.04786901
144	0x3cbfb8a0	0.023403466
145	0xbd16b9af	-0.036798175
146	0xbe0cce65	-0.13750608
147	0xbd3c9b4e	-0.046046548
148	0xbde222f9	-0.11041827
149	0xbd30ada8	-0.04313436
150	0x3d096498	0.0335432
151	0xbd84f6ee	-0.064924106
152	0xbdc489df	-0.09596609
153	0xbdc7dca6	-0.09758882
154	0xbc61e470	-0.013787374
155	0xbd5f9785	-0.05458786
156	0xbdfe4255	-0.124149956
157	0xbdd2cfd0	-0.10293543
158	0xbdd4e741	-0.10395671
159	0xbd4a6ba9	-0.04941908
160	0xbd9e56f5	-0.077314295
161	0xbda72bf5	-0.08162681
162	0xbdaf5c31	-0.08562506
163	0x3cbb0055	0.022827307
164	0xbde40e9a	-0.111355975
165	0xbc79d7ca	-0.015249202
166	0xbae901fb	-0.001777708
167	0x3d024559	0.031804416
168	0x3d3737c9	0.044730935
169	0xbdca7bc4	-0.09886888
170	0xbd95d665	-0.07316283
171	0xbd3ca89e	-0.046059243
172	0xbd2a0b95	-0.04151495
173	0xbd71cfcd	-0.059036065
174	0xbd1b1cbf	-0.03786921
175	0x3d825ff6	0.06365959
176	0x3cfda8cc	0.030964278
177	0xbdd1fbba	-0.10253091
178	0xbe2738bc	-0.16330236
179	0xbde26997	-0.11055296
180	0x3c82988f	0.015941886
181	0x3d6ad501	0.057332043
182	0xbe2f5daf	-0.17125581
183	0x3d77addb	0.060468536
184	0x3d3854d7	0.045002785
185	0x3d691e5a	0.05691371
186	0xbd76238e	-0.0600925
187	0x3d07e00c	0.033172652
188	0x3e667daa	0.22508875
189	0x3eb4b6a6	0.352956
190	0x3f0cdf60	0.55028343
191	0x3dc5fb21	0.0966704
192	0x3f2ccb46	0.6749767
193	0x3cd13ef0	0.025542706
194	0x3d1df163	0.038560282
195	0x3d8aa359	0.06769437
196	0xbdb1f93d	-0.086901166
197	0x3f71f0d9	0.9450813
198	0x3e02f4e1	0.12788726
199	0xbd265a03	-0.040613186
200	0x3cae2ea9	0.021262484
201	0x3cc6eb64	0.024282165
202	0x3da35848	0.07975823
203	0xbc638c9c	-0.013888504
204	0x3d6933f3	0.05693431
205	0x3c605d40	0.0136941075
206	0xbd199416	-0.03749474
207	0x3e300a52	0.17191437
208	0x3ed7bfbd	0.42138472
209	0xbd137c97	-0.03600749
210	0x3f250bcf	0.64471143
211	0x3c673f6b	0.014114241
212	0x3e5b08a5	0.21390016
213	0xbdf91d4d	-0.12163792
214	0x3d3873a4	0.04503216
215	0xbf25489d	-0.64563924
216	0xbeb2c6f1	-0.34917405
217	0xbd3d1030	-0.046158016
218	0x3eb46eb0	0.35240698
219	0xbe881541	-0.26578715
220	0xbc00c33b	-0.007859047
221	0x3ef859be	0.48505968
222	0x3da511bd	0.08060024
223	0x3e58d928	0.21176589
224	0x40130aeb	2.2975414
225	0x3e86b375	0.2630879
226	0x3dca5c8f	0.098809354
227	0x3d819ba9	0.06328518
228	0xbfbdf5e9	-1.4840671
229	0x3f7a90f0	0.9787741
230	0x3d9307ec	0.07179245
231	0x3dec3d6c	0.11535153
232	0xbe248022	-0.16064504
233	0x3e82a1c1	0.25514033
234	0x3e3fc0aa	0.1872584
235	0xbe817d3f	-0.25290868
236	0x3e062c4e	0.13102838
237	0xbd5dcd54	-0.054150894
238	0x3c450788	0.012025721
239	0xbeff562a	-0.49870425
240	0x3d14abcc	0.03629665
241	0x3ce6b111	0.028160604
242	0xbddea9c5	-0.10872225
243	0xc015f796	-2.3432364
244	0x3ecdb0c0	0.40173912
245	0xbdf9ce6a	-0.121975735
246	0x3dadd96c	0.084887356
247	0x3f6c465b	0.92294854
248	0xbdc4076b	-0.09571727
249	0x3f154aa3	0.5831701
250	0xbcff1497	-0.031137748
251	0xbf122ac9	-0.57096535
252	0xbeb77477	-0.35831043
253	0xbcd6282e	-0.026142206
254	0x3f0058a2	0.5013524
255	0xbdc1414f	-0.09436285

layers.1.bias f4 [186]
0	0xbe2f8f39	-0.17144479
1	0x3e733425	0.2375036
2	0xbd364498	-0.04449901
3	0xbd9b88ac	-0.075944275
4	0xbe6bf007	-0.23040782
5	0xbe952037	-0.2912614
6	0x3d8f2993	0.069903515
7	0x3e7b83be	0.24561974
8	0xbd82f9f6	-0.063953325
9	0xbed9d302	-0.425438
10	0xbe1b57e4	-0.15170246
11	0xbe39db8d	-0.18150158
12	0xbea51259	-0.3224056
13	0xbe9d0c8e	-0.3067364
14	0xbe62f84c	-0.2216503
15	0xbdcdd19b	-0.10049745
16	0xbd1302aa	-0.035891213
17	0xbd3c72a7	-0.04600778
18	0xbcdc17a5	-0.026866743
19	0x3a8189dd	0.0009883005
20	0xbd06cecb	-0.032912057
21	0x3ea82c6a	0.32846385
22	0x3ea2705e	0.31726354
23	0xbd0b53fc	-0.03401564
24	0xbd41bafc	-0.047297463
25	0xbeb93db1	-0.3617988
26	0xbd040268	-0.032228857
27	0xbef2122d	-0.47279492
28	0x3d465435	0.04842015
29	0x3e29315e	0.16522738
30	0xbd6d3201	-0.057909016
31	0xbf0a069b	-0.5391633
32	0xbd962eb8	-0.0733313
33	0xbf27bf16	-0.6552595
34	0x3e957e38	0.2919786
35	0x3d3e648b	0.046482604
36	0xbe97dc8b	-0.29660448
37	0xbd4d413d	-0.050111044
38	0xbcf09818	-0.029369399
39	0x3e92904d	0.28625718
40	0x3e8a808b	0.27051196
41	0xbe08e52e	-0.13368675
42	0xbe1bcb73	-0.15214328
43	0x3e3808be	0.17972085
44	0xbd4106ff	-0.047125813
45	0xbe19a9be	-0.15006158
46	0xbe6fa7ca	-0.2340385
47	0xbde912ff	-0.11380576
48	0xbdf4406c	-0.1192635
49	0xbf001d6f	-0.5004491
50	0x3eaa8789	0.3330653
51	0xbdd2291a	-0.10261746
52	0x3ecd3f70	0.4008746
53	0xbd148754	-0.03626187
54	0x3ecdcf50	0.4019723
55	0xbf099501	-0.53742987
56	0xbf0df029	-0.5544458
57	0x3e7c6e8a	0.24651542
58	0xbea4807a	-0.3212927
59	0x3dd222d9	0.10260553
60	0xbe76d107	-0.24103175
61	0xbea8cdb6	-0.32969445
62	0xbe4e947e	-0.20173833
63	0x3eb00422	0.34378153
64	0xbdab9329	-0.08377678
65	0x3e95425d	0.29152194
66	0x3d8b3036	0.06796305
67	0xbd8c55ed	-0.068523265
68	0x3f17da71	0.5931769
69	0xbe99117a	-0.29896146
70	0xbd83f670	-0.064434886
71	0x3e49c7ad	0.19705077
72	0x3e6eaa20	0.23307085
73	0xbdde6742	-0.108595386
74	0x3d96e119	0.07367153
75	0xbdb28d1e	-0.08718322
76	0x3ea3a2de	0.31960195
77	0xbee06ce4	-0.43833077
78	0xbcf5fc88	-0.030027643
79	0xbcd524fa	-0.026018608
80	0xbd233b45	-0.039851446
81	0xbcb934e7	-0.022608234
82	0xbd551787	-0.05202439
83	0xbd8712a3	-0.065953515
84	0x3eaf709c	0.34265602
85	0xbce299b0	-0.027661175
86	0xbdc2bb67	-0.095084004
87	0x3e98ae27	0.29820368
88	0xbd7394dc	-0.059468135
89	0x3db4728e	0.08810912
90	0x3ea28f98	0.31750178
91	0xbd8a43f8	-0.06751245
92	0xbf370b36	-0.7150148
93	0xbde789a6	-0.11305551
94	0xbe80541c	-0.2506417
95	0xbec80e41	-0.39073375
96	0x3ea87936	0.32904977
97	0xbd316c82	-0.04331637
98	0xbed35012	-0.41272026
99	0x3e9f5be0	0.31124783
100	0xbe1c44ad	-0.15260573
101	0x3db6fa14	0.08934417
102	0xbdf0bcff	-0.11754798
103	0xbe8528d9	-0.26007727
104	0xbe0b4f2e	-0.13604423
105	0xbd30540d	-0.043048907
106	0xbd98e5e3	-0.074657224
107	0x3e78932d	0.24274893
108	0xbcdfa221	-0.027298989
109	0x3dbed68b	0.093182646
110	0xbd480f95	-0.048842985
111	0x3e81cdb5	0.25352255
112	0xbe117f92	-0.1420882
113	0xbeb400bd	-0.35156813
114	0xbe85379e	-0.26018995
115	0xbe29be82	-0.16576579
116	0xbd1b0210	-0.037843764
117	0x3e9e284c	0.3089012
118	0xbd85005b	-0.064942084
119	0xbeaa5aca	-0.33272392
120	0x3d57590a	0.05257515
121	0xbda6c951	-0.08143867
122	0xbd1b7ab6	-0.037958823
123	0xbd3e61b5	-0.0464799
124	0x3e59c64b	0.21267049
125	0xbea32bd5	-0.3186938
126	0xbe0bba96	-0.13645396
127	0xbda300d1	-0.0795914
128	0xbdb3e007	-0.08782964
129	0xbee0e307	-0.43923208
130	0x3e4d72cc	0.20063323
131	0xbd9be3b3	-0.076117896
132	0xbf3192e2	-0.6936475
133	0x3d0f2ef2	0.03495688
134	0x3e9a5a37	0.30146953
135	0xbe89fa98	-0.26949
136	0xbd4a25cd	-0.049352456
137	0xbe1de642	-0.15419868
138	0x3e25d9ad	0.16196318
139	0xbd3b71bd	-0.045762766
140	0xbf2de122	-0.6792165
141	0xbdfbf74f	-0.1230303
142	0x3eaa7244	0.33290303
143	0xbcad8e4f	-0.021186022
144	0x3ddbe958	0.10737866
145	0xbe23208d	-0.15930386
146	0xbd2e9b64	-0.04262866
147	0x3e35f78c	0.17770213
148	0x3e929c66	0.28634948
149	0x3e85ca2f	0.26130816
150	0xbcd6f323	-0.026238983
151	0x3f128d1c	0.57246566
152	0xbd91a9f2	-0.071124926
153	0xbee08d72	-0.43857914
154	0x3dea3d83	0.11437514
155	0xbe524365	-0.20533521
156	0x3e33fe37	0.17577444
157	0xbe14be2a	-0.14525667
158	0xbe05f2cc	-0.13080901
159	0xbf1be1da	-0.608915
160	0xbd862717	-0.065504245
161	0xbdc293f1	-0.09500874
162	0x3dd91db0	0.106013656
163	0xbd982ec6	-0.07430796
164	0xbdb690b2	-0.08914317
165	0xbddf6479	-0.109078355
166	0x3e941833	0.28924713
167	0xbddd18ab	-0.10795721
168	0x3e4aa097	0.19787823
169	0xbe330c69	-0.17485203
170	0xbdc1a9ce	-0.09456216
171	0xbd898fb4	-0.06716862
172	0xbc5c36db	-0.013440813
173	0xbdac9b37	-0.084280424
174	0x3e6211ae	0.22077057
175	0x3d3eba78	0.04656455
176	0xbe7f86a1	-0.249537
177	0xbe60eb84	-0.21964842
178	0xbdd6d972	-0.10490693
179	0x3f12f85e	0.5741023
180	0xbda451cd	-0.08023415
181	0x3e9a12c0	0.3009243
182	0x3f03fca9	0.51557404
183	0xbec8fc1e	-0.3925485
184	0xbf121315	-0.57060367
185	0xbe48b3fe	-0.19599912

output_layer.weight f4 [1, 186]
0	0x3cb9bf1e	0.02267414
1	0xbe61eb5a	-0.22062436
2	0xbc665432	-0.01405816
3	0xbd24f11a	-0.040268995
4	0x3f51ae1f	0.8190631
5	0x3d97010b	0.07373246
6	0xbef3a839	-0.4758928
7	0xbf0a7b4c	-0.54094386
8	0xbc43bee3	-0.011947366
9	0xbeff7b4c	-0.49898756
10	0xbca6f905	-0.020382414
11	0xbc6cf15f	-0.014461844
12	0xbbb6b7e0	-0.005576119
13	0xbb9c2b8b	-0.004765933
14	0x3d15d022	0.036575444
15	0xbbbe82f1	-0.0058139493
16	0xbc5a6eaa	-0.013332048
17	0x3d4285b1	0.04749078
18	0xbb736b8d	-0.0037142963
19	0x3c83a29c	0.01606875
20	0x3c322639	0.010873371
21	0xbe761156	-0.2403005
22	0xbf14e3ce	-0.581601
23	0x3b38cca8	0.0028198157
24	0x3ca1c9f7	0.019749625
25	0xbe25adac	-0.16179532
26	0xc015c7cb	-2.3403194
27	0x3ee2dbaf	0.4430823
28	0xbe1d0db0	-0.15337253
29	0xc01e0041	-2.4687655
30	0x3c870dfe	0.016486164
31	0xbf3393d7	-0.7014746
32	0xbbbeaad4	-0.005818704
33	0xbe5de566	-0.2166954
34	0xbf2928aa	-0.66077673
35	0xbe623412	-0.22090176
36	0xbe7ae8ee	-0.24502918
37	0x39ade88a	0.00033170386
38	0xbbe9128a	-0.0071128057
39	0xbf0feb20	-0.5621815
40	0xbe9848e1	-0.29743102
41	0xbc90d3d8	-0.01767914
42	0xbcc2d131	-0.02378139
43	0xbd995573	-0.07487001
44	0xbb8ec185	-0.0043565654
45	0xba56fea9	-0.00082013995
46	0x3c62df13	0.01384713
47	0xbe452220	-0.19251299
48	0xbb4c711c	-0.0031195348
49	0xbfa31698	-1.274127
50	0xbf8d91f5	-1.1060168
51	0xbbe08c54	-0.006852666
52	0xbfb85f10	-1.4404011
53	0x3c0b7db3	0.008513856
54	0x3e7cef3c	0.24700636
55	0xbf81f983	-1.015427
56	0xbf6fe638	-0.9371066
57	0xbe2b28d0	-0.16714787
58	0xbf619e07	-0.88131756
59	0xbff8bc9d	-1.943256
60	0x3d206825	0.03916182
61	0x3dc8afd5	0.09799162
62	0x3e500919	0.2031597
63	0xbf262787	-0.64904064
64	0xbcc8200f	-0.02442935
65	0xbf48af79	-0.7839275
66	0xbf8ca085	-1.0986487
67	0xbc9bb15c	-0.01900547
68	0x3e8d9730	0.2765441
69	0xbf1bd565	-0.6087249
70	0xbde7547a	-0.112954095
71	0xbe8de68b	-0.27714953
72	0xc00259ec	-2.0367384
73	0x3f622d31	0.88350207
74	0xbeb1fdc7	-0.3476393
75	0x3cd209ce	0.02563944
76	0xbf729685	-0.94760925
77	0xbf1a5bd5	-0.60296375
78	0xbfc36c61	-1.526745
79	0xbc661337	-0.014042667
80	0xbc8be3c3	-0.017076379
81	0xbcb2cb4a	-0.021825451
82	0xbbedb4f7	-0.0072542387
83	0x39e035c0	0.00042764656
84	0xbf743dd1	-0.95406824
85	0xbca09eb3	-0.019606924
86	0xbcc4a49e	-0.024004277
87	0xbf0b28dd	-0.5435923
88	0x3cf4bd64	0.029875465
89	0xbdc8855f	-0.097910635
90	0xbf0fc8f9	-0.56166035
91	0xbc9eceeb	-0.019385776
92	0xbdd48ccf	-0.103784196
93	0x3cd54a3e	0.026036378
94	0x3c61416e	0.01374851
95	0x3e4b9a34	0.19883043
96	0xbf09a1fb	-0.5376279
97	0x3c2ff885	0.010740404
98	0x3ec4ff36	0.3847596
99	0xbe94e42d	-0.29080334
100	0x3f1ea5d4	0.61971784
101	0xbe54bbfd	-0.20774837
102	0x3cb31bbd	0.021863813
103	0x3bc91782	0.0061368356
104	0xbaf6e243	-0.0018835742
105	0xbb73e741	-0.0037216695
106	0xbc80f08b	-0.0157397
107	0xbe3ffd6d	-0.18749018
108	0xbca8aee5	-0.020591209
109	0xbda9c389	-0.082892485
110	0xbcbb0c12	-0.022832904
111	0xbf67a787	-0.9049
112	0xbbc0e3fc	-0.005886553
113	0x3d651195	0.05592497
114	0x3c3fc051	0.011703567
115	0xbc8822e7	-0.016618205
116	0x3c5a2fe4	0.013317082
117	0xbf89e306	-1.0772407
118	0x3b0d2abf	0.0021540371
119	0xbf8f8a36	-1.1214054
120	0xbfde0416	-1.7344997
121	0xbd2002c5	-0.03906514
122	0x3c767d24	0.015044484
123	0xb941e4e1	-0.00018491178
124	0xbf5db4d3	-0.8660404
125	0x3f5ef6ee	0.87095535
126	0x3d3d27cf	0.046180543
127	0x3c7e1b8c	0.015509497
128	0x3b8e8a15	0.0043499568
129	0xbe4dd0b1	-0.2009914
130	0xbc23d0b7	-0.009998492
131	0xbaa74512	-0.0012761673
132	0xbf357ec4	-0.70896554
133	0xbe8940d1	-0.26807263
134	0xbf2199e9	-0.63125473
135	0xbc94718c	-0.01812055
136	0x3ccf6632	0.025317285
137	0x3c85ffb9	0.01635729
138	0xbcd2bdcf	-0.025725273
139	0x3d67c145	0.0565808
140	0xbf3efd7c	-0.74605536
141	0x3d47a1dc	0.048738346
142	0xc034cde1	-2.8250659
143	0xbca99c5a	-0.020704437
144	0xc009e6ca	-2.1547112
145	0x3d7bc55f	0.061467525
146	0x3d1cde34	0.038297847
147	0xbea7ca25	-0.32771412
148	0xbfaf006a	-1.3672001
149	0xbe224a98	-0.15848768
150	0x3c9d0e3e	0.01917183
151	0x3f889e27	1.0673264
152	0x3ec1442c	0.37747324
153	0x3d45338b	0.04814486
154	0xbe3d3757	-0.18478142
155	0x3f80c720	1.0060768
156	0xbe3f5674	-0.18685323
157	0x3e5bf3a7	0.21479665
158	0x3ccbaba8	0.024862126
159	0xbe612db6	-0.21990094
160	0x3c53fd32	0.012938784
161	0x389a1d5a	7.3487594e-05
162	0xbf5c0f38	-0.8596072
163	0xbcc1ae7e	-0.023642775
164	0xbbf29011	-0.007402428
165	0x3e91d467	0.28482363
166	0xc0169444	-2.3527994
167	0x3b56c0d3	0.003276874
168	0xbef57e95	-0.47948137
169	0x3e1beb8d	0.15226574
170	0xbeabbf16	-0.33544225
171	0x3c1a9dca	0.009437034
172	0x3d45f0be	0.048325293
173	0xbcac16fa	-0.02100705
174	0x3e8ec46f	0.27884242
175	0x3c1c536c	0.009541374
176	0x3e44acdc	0.19206566
177	0x3e642e0d	0.22283192
178	0xbfefbb58	-1.8729048
179	0x3f437306	0.76347387
180	0xbb874098	-0.004127573
181	0xc0023f2f	-2.0351064
182	0xbfbcc429	-1.4747363
183	0xbe3fbd7f	-0.18724631
184	0xbea2d47a	-0.31802732
185	0xbfb6e37a	-1.428817
